modelos_TCC/notebooks/tests/conv_ae.pth (torch, 450226 bytes, 11 tensors)

encoder.0.weight f4 [16, 1, 3, 3]
000000 3f 54 59 bd f2 85 1e 3e b0 af 5a bd 59 5b 4d 3e
       -0.05305886 0.15480784 -0.053390205 0.20054378
000010 a8 38 20 3e 0d 21 12 3e cb 5b 0b be 2b 43 20 be
       0.15646613 0.1427042 -0.13609235 -0.15650623
000020 30 41 69 bd 92 28 30 3e aa 30 8d 3e ff ec 8f 3d
       -0.056946933 0.17202976 0.2757619 0.07027625
000030 57 ad 22 3e 4c 17 69 be c0 7c 8f be 85 c1 02 be
       0.15886436 -0.22762793 -0.28024864 -0.12769134
000040 02 25 27 be 85 f9 f6 3d 24 bb 53 bd 39 81 e0 3d
       -0.16322711 0.12059311 -0.051692143 0.10962147
000050 9e 9d 52 3e 57 38 89 be 9c a4 90 be c6 b9 51 be
       0.20567939 -0.26800796 -0.28250587 -0.20481023
000060 01 ef 3c be 7d 2f 3c bd 03 ab d6 bd 1d 4d 34 3d
       -0.18450548 -0.045943726 -0.10481837 0.044018853
000070 09 03 9b bc 44 e2 86 be 55 8b 91 3d f1 e5 9d 3e
       -0.018922346 -0.26344502 0.071066536 0.30839494
000080 d8 d7 e6 3d 42 3a 22 be 08 91 02 3d 23 d6 73 3d
       0.11271638 -0.15842536 0.031876594 0.05953039
000090 db 27 a2 bd 7e 61 72 be 3e 09 e8 bd c5 a0 77 bd
       -0.07917758 -0.23670003 -0.11329888 -0.060456056
0000a0 3e 48 cb bd e2 bc 30 be d5 d3 79 bd 2b 68 84 be
       -0.099258885 -0.17259553 -0.060993034 -0.25860724
0000b0 06 16 f6 bd c9 90 35 3e b2 e1 c5 3d 82 3b f0 3d
       -0.120159194 0.17731012 0.096621886 0.117301
0000c0 3a 79 25 3e 27 74 09 3e 61 90 56 be 6f 2d 36 3e
       0.16159526 0.13423215 -0.20953514 0.17790769
0000d0 91 4b 19 be 73 a5 29 be 62 21 15 be 70 af d5 bc
       -0.14970233 -0.1656702 -0.14563516 -0.026084632
0000e0 4f 14 06 3e 6f bf aa be 7b a1 21 3e a7 d6 20 3e
       0.13093685 -0.33349177 0.15784256 0.15706883
0000f0 f3 61 10 3d 2b 65 3b 3e 3a 13 d0 3d cc 2c 41 3e
       0.03524966 0.18300311 0.10159917 0.18864745
000100 b6 26 73 3c d9 97 41 3e 42 41 05 3e 3e 60 31 be
       0.014840772 0.18905582 0.13013175 -0.1732187
000110 39 c3 3d 3e ed df 42 3e 03 cc 89 3d 67 e3 5f 3e
       0.18531503 0.19030733 0.06728365 0.21864091
000120 c3 59 8a 39 b2 cd 5c 3e 99 46 3b be d8 23 17 bd
       0.0002638829 0.21562842 -0.1828865 -0.036899418
000130 d0 9c ac 3d a9 e2 16 be 44 87 0a 3d fc 3d 76 3e
       0.08428347 -0.14734901 0.033820406 0.24047083
000140 cd 4d 0f bd 97 a4 0a 3d 89 f9 a9 3c 85 c1 f6 3d
       -0.034986306 0.03384837 0.02074887 0.1204863
000150 27 13 b4 bd c2 e3 33 3e 15 41 78 3d c5 b5 ae bc
       -0.087927155 0.17567351 0.060608942 -0.021326909
000160 06 8e b4 3d 8b 07 80 3c 0b 7d 05 3e a9 3f f7 3d
       0.08816151 0.015628597 0.13035981 0.12072689
000170 50 fb 48 3e 6b dd 25 be 9a 14 86 bd 77 9a 2b 3d
       0.19627118 -0.16197746 -0.06546898 0.041895356
000180 93 9f e9 bd 86 e1 b0 bd ea 6b 0c bc 56 48 7b 3d
       -0.114073895 -0.08636765 -0.008570651 0.06134828
000190 86 9a c9 bd c8 bb 90 3e 6c 57 89 bd 31 09 cf be
       -0.09843926 0.28268266 -0.067061275 -0.404367
0001a0 f9 59 86 3e ba 25 22 3d d3 07 37 be e1 4b 0a 3e
       0.2624052 0.03958676 -0.17874078 0.13505508
0001b0 e9 55 c3 be 27 64 75 be 17 27 07 c0 e4 d3 bf bf
       -0.38151482 -0.23963986 -2.1117609 -1.4986539
0001c0 18 a5 44 3f 78 61 52 be 11 8a 49 c0 ae c3 07 bf
       0.76814413 -0.20544994 -3.149052 -0.5303296
0001d0 a6 55 42 bf c3 d4 8c 3e 58 56 d2 bd 69 bb d0 bd
       -0.7591194 0.27506074 -0.10270375 -0.10191996
0001e0 69 a1 8c bd 16 76 95 be 82 05 4d bc a5 86 42 bd
       -0.06866724 -0.29191655 -0.01251352 -0.04749169
0001f0 7f f4 29 3d 9a 26 65 3e a8 67 bb be 96 75 a3 3c
       0.041492935 0.22378007 -0.3660252 0.01995353
000200 7b db 9b 3d 28 fd 7a 3e 19 97 09 3e 91 c2 02 3e
       0.07610222 0.24510634 0.13436545 0.12769534
000210 b7 62 2b bd ac 5c 21 3e f5 9a 0b be 0c 48 c1 3d
       -0.04184219 0.15758008 -0.1363333 0.0943757
000220 6d 82 a3 be a0 76 74 3c 17 5b 5f 3e b4 8f a5 be
       -0.31935444 0.0149208605 0.21812092 -0.323362
000230 b6 b9 45 be 02 fd a1 3e a6 29 08 3e 08 3c 3c 3d
       -0.19309124 0.31638342 0.13297138 0.045955688

encoder.0.bias f4 [16]
000000 64 c3 a3 bb b3 7e ec 3b 73 42 f5 3d 53 2a 65 bc
       -0.0049976576 0.007217252 0.11975565 -0.013987142
000010 db 17 a2 3e f0 ef 8a bb 64 89 48 bc d5 ce f0 bb
       0.31658825 -0.0042400286 -0.012239788 -0.007348875
000020 12 42 89 bb 1b 47 4b bb 05 18 c4 3d bf 4b e7 bc
       -0.0041887844 -0.0031017724 0.09574894 -0.02823436
000030 4b 50 1e 3e 57 58 bd 3d a1 d3 4c ba b8 f8 03 bb
       0.15460317 0.09245365 -0.00078135176 -0.0020137262

encoder.2.weight f4 [32, 16, 3, 3]
000000 a8 39 5a 3e da 67 fe 3d 70 8f c0 3d be 75 f4 bd
       0.21311057 0.12422152 0.094023585 -0.1193652
000010 92 28 9e be fb 4a fd bd 5b bd fd 3d 20 ba be 3e
       -0.30890328 -0.12367817 0.12389632 0.37251377
000020 19 5a e1 3d 71 cc 2d 3e 41 30 3b 3d e9 84 38 bd
       0.11003513 0.1697252 0.045700315 -0.045048628
000030 18 dc 71 3c 2f df 8a be 1b 82 f4 bd 6a 7a 32 be
       0.014761947 -0.271234 -0.11938878 -0.1742951
000040 f5 c3 da 3d 36 4b 20 3d 77 3a 3e 3e 51 31 1f 3e
       0.10681907 0.039134227 0.1857699 0.15546156
000050 6c 6e 9a 3e e2 d3 0c 3c d1 0e 0a bd 28 94 56 3e
       0.3016237 0.008595439 -0.033705536 0.20954955
000060 d6 ff 2a 3d 9a 65 4e bd 23 a3 73 3d 92 6a 4a 3d
       0.04174789 -0.050389864 0.05948175 0.04941804
000070 de b6 e2 3d 8c 22 49 3e d4 88 b4 be bd 6b c1 be
       0.110700354 0.19642085 -0.35260642 -0.3777751
000080 55 b4 90 bc 4a bd 18 bf ea 5c 01 bf 0c 11 7e be
       -0.017664114 -0.5966383 -0.505324 -0.2481119
000090 ed 0e 47 3e e5 6c 3f 3e cd 1c 78 3d ec 4d 1d 3e
       0.19439287 0.18693884 0.06057434 0.15361756
0000a0 b0 99 10 be 51 a8 05 3e 37 a4 b9 3d be b7 c9 bd
       -0.14121127 0.13052489 0.090645246 -0.09849499
0000b0 f7 17 56 3e 33 b9 96 3d 95 bf a6 bd 2e 14 44 be
       0.2090758 0.07359543 -0.0814201 -0.19148323
0000c0 72 de f5 bb 8b f7 24 3e ea 8a ec be 6e a2 3f be
       -0.007503324 0.16110055 -0.46199733 -0.18714306
0000d0 7e f6 b5 be cb a9 1a bf 4c f7 92 3d 32 10 43 3d
       -0.3553962 -0.60415334 0.071760744 0.047622867
0000e0 71 ae 13 be 70 22 75 be 8e da 9f 3c 84 b2 6f be
       -0.14422013 -0.23938918 0.019513395 -0.23407942
0000f0 91 79 93 bd 48 0e 34 3d b5 08 fb bd 22 69 22 bd
       -0.07200921 0.043958932 -0.1225752 -0.039651044
000100 6a 82 23 3d 32 06 33 3d 6f 9c 2b 3e 92 07 0c 3e
       0.039919294 0.04370708 0.16758893 0.13674763
000110 b5 63 b5 3d b6 bf 2d 3e da 9c 70 3e 24 00 76 3d
       0.08856908 0.16967663 0.23497334 0.060058728
000120 9c fa b9 bd c1 61 2a 3d 47 0a 1b 3e 37 c0 4a be
       -0.09081003 0.04159713 0.15140639 -0.19799887
000130 7c 0c e3 be 93 4b 7a 3c 96 ac 80 be 62 d0 fa be
       -0.44345462 0.015276807 -0.25131673 -0.48987108
000140 1a 79 63 be f5 f2 a1 bc 7c f8 d3 3c 5a 80 b7 3c
       -0.22214165 -0.019769171 0.025875323 0.02240007
000150 84 c0 53 be f9 9d 94 bd 03 99 7c bd 4b 1d 47 bd
       -0.20678908 -0.072566934 -0.06166936 -0.04861192
000160 02 0d 79 3d bf 82 8b bd 0e 0d f8 3d 70 18 74 3e
       0.06080342 -0.06812047 0.12111865 0.23837447
000170 31 98 6a 3e b8 23 54 bd 0f f8 0d be d4 32 73 3c
       0.22909619 -0.051791877 -0.13864158 0.014843661
000180 e6 f7 85 3e 57 04 ad 3c 65 a8 f3 3c 97 4d 4b 3d
       0.26165694 0.021120233 0.029743383 0.049634542
000190 95 58 93 3d ba 61 18 3d 16 6c 38 bc e7 12 30 3d
       0.0719463 0.037202574 -0.011256238 0.042986777
0001a0 9b bb 0d 3e 0c e0 1d bf 5c 66 e5 be ae 5c b5 bd
       0.13841097 -0.61669993 -0.44804657 -0.08855568
0001b0 bb a3 9d bd 51 9a 1d be 35 98 c7 bd 57 3b 88 3d
       -0.07697245 -0.15390898 -0.09745828 0.06651943
0001c0 81 e0 88 bd 6d b3 c1 bd f8 a2 ac 3e bf 32 86 3e
       -0.06683446 -0.09458051 0.33718085 0.2621059
0001d0 86 86 2f 3e 77 a2 e4 3c dc 4d 55 3d 5a fe ef bd
       0.1714116 0.0279095 0.052076206 -0.117184356
0001e0 f1 46 05 3e 08 d3 98 bd a9 fc 2d be 49 56 4d 3d
       0.13015343 -0.07462126 -0.16990913 0.050131116
0001f0 11 64 51 be c4 0c 95 3d 2e a0 5a 3e 76 16 4d 3e
       -0.20448329 0.072778255 0.21350166 0.200281
000200 23 c8 f5 bc 72 9d 4b bd 61 73 0d bf 65 1f 27 be
       -0.03000266 -0.0497107 -0.5525418 -0.1632057
000210 49 ba 92 bc 60 45 3c bf c1 57 cf bd 23 e9 07 bd
       -0.017911093 -0.7354336 -0.101241596 -0.03318132
000220 40 15 7d bd 5c 63 a6 3d 58 fc 0a be eb 81 b2 be
       -0.061787844 0.0812442 -0.13572824 -0.34864745
000230 0b 5a 4c be d0 6a 1a bd 08 af fd bd 8d 87 83 be
       -0.19956224 -0.03769952 -0.123869 -0.25689355
000240 57 4a 69 3e 8b 77 01 3e 7a 4c b9 3d d9 68 51 be
       0.22782265 0.12643258 0.0904779 -0.20450152
000250 60 05 ef bc 16 e7 74 be 36 44 f6 3c a4 8c 4d bf
       -0.029177368 -0.23916277 0.030061822 -0.80292726
000260 44 b9 6b be 0b 45 99 3d f0 40 8e be 8c e7 13 bc
       -0.23019892 0.07483872 -0.27783918 -0.009027373
000270 80 de e6 be 20 46 ab be cc 1f 96 be 07 e5 3b bf
       -0.4509163 -0.3345194 -0.29321134 -0.73396343
000280 6a b0 9b 3e f7 45 a3 3d e6 39 38 3e 6a a8 b4 3e
       0.3040803 0.07972329 0.17990837 0.3528474
000290 c6 e2 9a 3d b7 4f 72 3e 64 43 57 be da 4e 32 3e
       0.07562785 0.23663221 -0.21021801 0.17412892
0002a0 b0 6b 68 3e dd 50 25 3e da 1a 92 3c 4d 20 d0 be
       0.2269733 0.16144128 0.01783507 -0.40649644
0002b0 26 9c 8b be 45 ae 23 3d b0 81 87 bf 67 3f 35 be
       -0.2726757 0.03996112 -1.0586452 -0.17699967
0002c0 47 d6 c1 bd ee a9 29 bf b0 da 65 bf 42 59 9e be
       -0.09464698 -0.6627492 -0.89786816 -0.30927473
0002d0 13 7c 06 3f b2 72 71 3e a9 17 a8 3e 59 1e 29 3e
       0.5253307 0.23578909 0.3283055 0.16515483
0002e0 f9 83 8a be eb 5a ba 3e fb 15 1a 3e 5f c0 bb 3c
       -0.27053812 0.3639749 0.15047447 0.022918878
0002f0 29 38 ae 3d 71 4d 8e 3d 53 e6 b8 bd 09 bf 3c be
       0.085068054 0.069483645 -0.09028306 -0.18432249
000300 d6 74 b8 3e c3 ca 37 3f 19 f8 02 bf 2d b8 d2 be
       0.3602664 0.71793765 -0.51159817 -0.4115614
000310 4d 3f 8f bf 05 75 b7 bc b5 c4 4b be 30 14 dc be
       -1.1191193 -0.022394666 -0.19899257 -0.42984152
000320 8f fe e7 3c 13 60 ed 3e 6d 14 64 bd 92 7f 23 be
       0.028319625 0.4636236 -0.055683542 -0.15966633
000330 d0 aa 08 be fa 30 95 3d 60 98 b2 ba 03 ef 38 3e
       -0.1334641 0.07284732 -0.0013625734 0.18059926
000340 bf 96 95 3d d7 44 68 3e b2 3a 8c 3e 0a 2a 6c bd
       0.07304143 0.2268251 0.2738853 -0.05765728
000350 de 88 30 3e 43 35 9a 3d fa f1 04 3b f3 8a 15 3e
       0.1723971 0.0752969 0.002028583 0.14603786
000360 9f 62 99 bd 99 b2 9a be 43 fc c9 3c 70 e6 82 3d
       -0.074895136 -0.30214384 0.02465642 0.06391609
000370 8f fb ac 3d 4e ad 40 3c 09 83 a9 be a2 67 ef be
       0.084464185 0.011760069 -0.33107784 -0.46758753
000380 e7 03 e7 3c 5b f2 1f be be 4f 8b be 94 ea 26 3d
       0.028200103 -0.15619795 -0.27209276 0.040751055
000390 f5 ca d5 be a7 87 e1 3c ea ca 99 bd 8d 6f 82 bd
       -0.41756406 0.027530504 -0.07509406 -0.06368933
0003a0 84 a3 15 be 58 63 26 3d 42 51 2e 3d 04 f9 46 3c
       -0.14613158 0.040622085 0.042557962 0.012144331
0003b0 ba 9e cc 3d 77 f7 da bc 95 a8 57 be bd 40 65 bb
       0.09991212 -0.026729329 -0.21060403 -0.0034981214
0003c0 00 0c 02 3e a6 76 08 be 8b db c1 be 68 e1 eb bd
       0.1269989 -0.13326511 -0.3786281 -0.11517602
0003d0 c6 c6 3b be d9 68 e5 3d fc d7 a6 be 28 d8 e6 bd
       -0.18337545 0.11201639 -0.32586658 -0.11271697
0003e0 c1 f8 60 bd a1 b8 7f 3c cc 7a 02 bf cc 8a 60 3d
       -0.05492473 0.015607984 -0.50968623 0.054819867
0003f0 0f c4 0d 3e 6c 05 5e 3e e4 4b 8b be 58 09 d7 3e
       0.13844322 0.21681756 -0.27206337 0.41999316

encoder.2.bias f4 [32]
000000 ac e0 3f be f8 d0 47 be e6 15 0d be d0 1b ad 3d
       -0.1873805 -0.19513309 -0.13777885 0.084525704
000010 0a a4 d2 3d b9 d7 5a be fe 58 01 be 05 db 02 be
       0.10285194 -0.21371354 -0.12631604 -0.12778862
000020 bf 13 17 3e 6d 90 99 bd a4 b9 d9 bc e8 e8 33 bd
       0.14753626 -0.0749825 -0.026577778 -0.04392329
000030 47 2c b9 bd 34 2f 67 3d 2d a6 03 be a4 09 55 be
       -0.09041648 0.0564415 -0.1285636 -0.20804459
000040 2f 68 2a be 63 d7 10 be 3d 95 ed bd ee a6 86 be
       -0.16641305 -0.14144664 -0.116007306 -0.26299232
000050 1d c9 6b bd 14 8c 58 3c 8e d4 42 3d d6 95 16 3d
       -0.057564843 0.013216991 0.04756599 0.03676399
000060 73 57 3d 3e 89 ad e1 bd 8a 25 a5 3d e4 60 b3 3d
       0.1849039 -0.11019427 0.08063801 0.08758715
000070 36 60 38 be fc 18 c4 bd 36 79 87 be 7d c8 4c bc
       -0.18005452 -0.09575078 -0.26459664 -0.012498972

encoder.5.weight f4 [32, 1568]
000000 2f 5d 32 39 7f 55 9f bb bd e5 44 bc 8e 0b b1 3d
       0.00017010116 -0.004862487 -0.0120176645 0.08644782
000010 ce 38 b0 3d 63 70 ab bc 8f 54 85 3c de d1 69 bd
       0.08604585 -0.020927614 0.016275672 -0.05708491
000020 15 ea a2 bb b8 00 12 3c d9 12 2e 3e ad 49 84 3d
       -0.0049717524 0.008911304 0.16999377 0.06459365
000030 6a 89 48 be 4b df bd bc 40 75 a2 bc 95 d9 3f 3d
       -0.1958367 -0.023177763 -0.0198313 0.04683836
000040 8b 9c 10 3e 0c 73 67 3e ec f9 b3 3d 1a 62 6b 3c
       0.14122216 0.2260248 0.08787903 0.014366651
000050 0a a4 67 3c 19 7e 95 bd 89 28 2a 3d 93 13 82 be
       0.014138231 -0.07299442 0.041542564 -0.2540556
000060 4b c3 85 bd c4 9c 05 bf 17 0f f3 bd 23 46 9a 3c
       -0.0653139 -0.5219233 -0.118681125 0.018832272
000070 c9 89 90 3c 08 20 f4 ba e6 6c ce 3e 2e 31 11 3e
       0.017643826 -0.0018625269 0.40317458 0.14178917
000080 db a5 89 be e1 b3 57 3d d0 89 80 bd 50 f3 90 3d
       -0.2688435 0.05266178 -0.06276286 0.07077658
000090 48 84 87 bd 80 1b 0f be 8a 6d b2 3c 86 f8 8a 3c
       -0.066170275 -0.13975334 0.021780748 0.016964208
0000a0 eb c7 08 be 36 e7 7d 3d 3c 4e ad 3d 68 b2 86 3d
       -0.13357513 0.061988078 0.08462188 0.06576997
0000b0 ec 0b 28 bd 9d e4 41 bd 2c 55 41 3c 6b bc 61 3a
       -0.041026995 -0.047337163 0.011800092 0.00086111453
0000c0 7c 78 e6 bc fc 42 8e 3c d7 55 fb bc 55 9e ae bc
       -0.028133623 0.017365925 -0.03068058 -0.021315733
0000d0 18 da 37 3d af 1b fc 3d 59 26 17 bd 15 61 98 3c
       0.044885725 0.12309968 -0.036901806 0.01860098
0000e0 ed 32 42 bd 3e 51 39 3c 0c ea 86 bd 0a 38 c5 bd
       -0.047411848 0.011310874 -0.0658761 -0.09629829
0000f0 b5 37 94 3e e4 6a fe bd 70 5f c3 bd 47 92 81 3d
       0.2894875 -0.124227315 -0.09539688 0.06326728
000100 a9 14 77 3d cb 43 55 3e 53 c8 b0 3e 2f 37 69 bd
       0.060322437 0.20826642 0.34527835 -0.056937393
000110 0b e2 d3 3e c2 05 03 bd 6a 34 06 be 5f 50 9a 3d
       0.41383395 -0.031987913 -0.13105932 0.07534861
000120 65 22 6d bd cf 9e 63 3d 63 52 e1 be 8d dc 82 be
       -0.05789413 0.055571374 -0.4400817 -0.25558892
000130 3f 69 b6 bc 3b 9f b7 3d 62 52 8b 3b c9 98 38 3e
       -0.022266982 0.08965918 0.004251764 0.18027033
000140 98 33 0e 3f 69 a3 56 be 3d c8 ab 3d 5c 83 4d bd
       0.55547476 -0.20960774 0.08387802 -0.050174102
000150 9f 8c 7e bd bf 3c 1e be 17 56 00 3e 1a 08 86 3e
       -0.062145825 -0.1545286 0.1253284 0.26178056
000160 fb 83 98 bd 00 52 b6 be 0d fc c6 bc 65 28 f2 3c
       -0.07447048 -0.35609436 -0.024290109 0.029560277
000170 8e 1f f2 3b a3 4e a2 3c 00 54 0e 3e 8c 67 80 bc
       0.0073890155 0.019812888 0.13899231 -0.015674375
000180 6a b3 55 bd b8 80 90 3c 57 9b c5 3b 04 a2 96 3e
       -0.052173056 0.017639503 0.006030481 0.29420483
000190 41 41 57 bd 87 5a 4f be 93 7d 92 be ac 99 af be
       -0.052552465 -0.20249377 -0.2861143 -0.3429693
0001a0 b7 e5 8b bd 2c 94 dd bc bb d7 53 3c a4 a8 3f 3e
       -0.06830924 -0.027048193 0.012929852 0.18716675
0001b0 af 6c 2b bd 4f d4 50 be e4 b1 ac be 8b 1f cc bd
       -0.041851696 -0.2039349 -0.3372947 -0.09966954
0001c0 fb 80 81 bd f7 2c 36 3b 8b 68 1a 3e 42 f2 88 3e
       -0.06323429 0.0027797797 0.15078942 0.26747328
0001d0 fc 90 2d bd eb ae 0b be 1b 37 0f 3e d3 a9 4a bc
       -0.042374596 -0.13640945 0.13985865 -0.012369591
0001e0 36 2a 40 3d b5 f0 62 3e a3 ec 8f be 0b 17 21 bd
       0.046915255 0.22162135 -0.28110227 -0.039328616
0001f0 da 00 80 be 2c 5e 13 3d f8 80 e6 bd d9 7b 90 3b
       -0.2500065 0.03597848 -0.112550676 0.004409295
000200 42 f9 19 bd 0c bd ab 3e 08 b4 31 be 97 ef f4 3d
       -0.037591226 0.3354267 -0.17353833 0.11959761
000210 0e 5e e2 bd 08 61 fc bd 57 5f 3a be 78 5c a2 be
       -0.11053096 -0.12323195 -0.18200432 -0.31711173
000220 3b 0b a5 3e ab 39 bb bd 9d e7 96 3e 8b d9 56 bd
       0.3223513 -0.09141859 0.29473582 -0.05245356
000230 a5 2b 83 3d bf 67 9d bd d8 21 9e bd ec 5b 1d be
       0.06404809 -0.076858036 -0.07721299 -0.15367097
000240 6f 02 36 3e 61 db e3 3d 4e 10 de 3c f1 a3 b9 3c
       0.17774366 0.111258276 0.027107384 0.022661181
000250 b4 57 1f bb f1 68 09 be 97 8b 08 bf 9b b3 12 bf
       -0.002431375 -0.13418938 -0.53338 -0.57305306
000260 a5 6c 53 3e 37 03 13 3f 25 75 f2 bd 8d a8 f7 3c
       0.20646913 0.5742678 -0.1183875 0.030231738
000270 8f ed 4c bc 12 f4 d6 3c 39 ce cd bd 4c a7 52 3e
       -0.01250781 0.026239429 -0.100490995 0.20571631
000280 80 0c e3 3c 3b 96 3c bc 7f e7 d2 3c 06 67 6b 3e
       0.027715921 -0.011510427 0.025745152 0.22988519
000290 c8 8d d6 bc a6 c0 ae 3d 21 19 da bc fa 2b 8c 3d
       -0.026190653 0.085328385 -0.02662331 0.06844325
0002a0 1a a0 16 3f 7f 95 96 3e e2 7d f1 bd 16 97 26 3d
       0.58838046 0.2941093 -0.11791588 0.04067143
0002b0 6b 9b 0f be 62 2d 09 be ce 57 d5 bd 16 b5 17 be
       -0.14024131 -0.13396218 -0.10417138 -0.14815173
0002c0 11 5f 3b 3d a2 11 16 bd 07 e5 3c 3e bf ca 91 be
       0.04574496 -0.03663791 0.18446742 -0.28474995
0002d0 e1 fa a2 3d aa e1 8f bd 25 6c c6 bd cb 38 2b bd
       0.079580076 -0.07025464 -0.09688596 -0.04180221
0002e0 23 2c 81 3d a2 f3 13 be 86 66 fc bd f1 70 8c 3d
       0.063072465 -0.14448407 -0.12324242 0.06857479
0002f0 0b a5 94 bc 0a ed 81 be ed 0c 93 3e 82 df 7b 3e
       -0.018145105 -0.2537616 0.287208 0.2459698
000300 8a a8 98 3d e2 9d fa bb f0 a0 0b 3c 98 97 d0 bc
       0.07454021 -0.0076482156 0.008522257 -0.02546291
000310 ba 89 f2 3b 11 af 41 3d fc 5a ea 3d c2 ef c6 3e
       0.007401672 0.047286097 0.11443135 0.38854796
000320 91 c0 3a be 7b cd 31 3f a9 37 f1 3b 9d 7f 4f 3c
       -0.18237521 0.69454163 0.0073613715 0.012664703
000330 6a 31 71 3d 19 19 a4 3e bb 74 79 3e 48 81 37 bd
       0.058885016 0.32050398 0.24360935 -0.044801027
000340 a3 4d e0 bd 2f b7 f8 3d df bc 9d be 55 85 17 3e
       -0.10952308 0.121443145 -0.3080816 0.14796956
000350 21 68 40 bd 01 cd 17 3e 14 a9 9d 3d e5 e8 83 be
       -0.046974305 0.14824297 0.07698265 -0.25763622
000360 f4 de 79 be dc 92 3e 3d 44 06 ed bc 79 23 ee 3d
       -0.24401456 0.046526775 -0.028933652 0.116278596
000370 7c 36 d3 3e 74 14 b3 3e a6 4e 85 3e 10 ef f1 3b
       0.41252506 0.34976542 0.26036566 0.007383235
000380 5a 25 07 be 0d 61 98 3e 6d ed 57 bd f2 f4 54 bc
       -0.13197842 0.29761544 -0.05271666 -0.012997853
000390 48 33 2a be 0e c0 85 3e 12 ea ae be a5 41 a9 3e
       -0.16621125 0.2612309 -0.34162956 0.33057895
0003a0 d0 8a b9 3d 45 87 da 3d 90 5f 0c 3e db 8d a6 3d
       0.090596795 0.10670332 0.13708329 0.081325255
0003b0 f3 81 79 3e 2c ce de bc ab 74 92 3d c1 1d 91 3d
       0.24365978 -0.02719792 0.07151159 0.07085753
0003c0 d3 ed 97 bd ed c9 f4 bd 98 84 11 bc 65 c1 8f 3d
       -0.07418408 -0.11952577 -0.0088817105 0.07019309
0003d0 0d 61 82 be 2f de 0e 3d e1 98 ab 3d 09 2f 46 3e
       -0.2546467 0.03487986 0.08378769 0.1935388
0003e0 d9 f2 e3 bd 70 5a 2b be e6 e7 69 3e a6 5a 8b bc
       -0.11130304 -0.16733718 0.22842368 -0.017010998
0003f0 87 f9 ad 3e 1c 3b 3c 3e 3c 30 5d 3e a6 e7 6f 3e
       0.33979437 0.18381923 0.21600431 0.2342821

encoder.5.bias f4 [32]
000000 19 01 59 3d 36 7f cc bd b3 6d 29 bd 9f 59 31 3c
       0.052979562 -0.09985201 -0.041364383 0.01082459
000010 e4 a4 88 3c c6 22 8b 3d d5 7f f0 bb 36 95 b6 bc
       0.016680188 0.06793742 -0.0073394575 -0.022287946
000020 12 fd 22 bd 2f 92 71 bc b0 f2 14 bd f5 8b 56 bc
       -0.039792128 -0.014744326 -0.036364257 -0.013094892
000030 1b 3b c2 b9 09 fe de 3d a3 fd 80 3d 65 12 5e bc
       -0.000370466 0.10888297 0.06298377 -0.01355419
000040 ea 1d 80 bd 41 05 d0 3d 8a 5d da 3d 39 cf 80 ba
       -0.06255706 0.10157252 0.106623724 -0.0009827382
000050 23 b4 9c 3d fb 43 27 3c b1 a4 52 bd 30 33 a8 3c
       0.07651546 0.010209079 -0.051426593 0.02053222
000060 c5 d0 c0 bc be 3f 9e 3d 5a e6 a3 3c 41 80 8b 3d
       -0.02353705 0.077270016 0.020007301 0.06811572
000070 75 9c a4 3d 9c c3 ff bc f9 d6 45 3c 1d 38 1a 3d
       0.08037654 -0.031221204 0.012075179 0.03765117

decoder.0.weight f4 [1568, 32]
000000 2a a4 d6 3d f6 64 a2 bd 0b d8 e6 bc c5 1c ce bd
       0.104805306 -0.07929413 -0.02817919 -0.10064081
000010 90 08 30 3c 30 0d d3 bd 9f 44 46 3e 11 d4 fd 3d
       0.010744229 -0.1030525 0.19362114 0.12393964
000020 81 46 d0 bb b4 d7 32 3d 3e 14 11 bd 6b 3c 30 3d
       -0.006356061 0.04366274 -0.035419695 0.04302637
000030 96 ce 0e 3e 0c 36 43 3e 25 87 ff bd a9 13 40 3e
       0.13945994 0.19063586 -0.12476949 0.187575
000040 a2 e4 0e be 9d 27 c4 bc 8e c3 71 bd 45 98 02 3d
       -0.13954404 -0.02394467 -0.059024386 0.031883497
000050 87 1a a4 bc 40 b9 95 3d fc be a1 3c 46 f2 60 bd
       -0.02003218 0.07310724 0.019744389 -0.05491855
000060 0b 65 8f 3e e9 a3 d4 bd 64 a4 13 be fe b2 29 3d
       0.28006777 -0.10382826 -0.14418179 0.041430466
000070 2e b6 61 3d db 66 d7 3d d3 ab 9b be ad 2f 4d 3e
       0.05510538 0.10517665 -0.3040453 0.20037718
000080 1c 9d c3 bd b5 90 07 3e 10 5a 93 be af fb a1 bd
       -0.095514506 0.13238795 -0.2877965 -0.07909333
000090 8c 6b b5 3d 5e 18 87 bd e1 4b 14 3f ad 74 1d 3d
       0.088584036 -0.065964445 0.5792828 0.03844135
0000a0 b5 4a b7 3d dc 76 87 be 5c 71 cc 3e e2 65 c4 be
       0.08949796 -0.2645787 0.39930236 -0.3835898
0000b0 da a3 91 3e c8 d4 0a be cf a8 f0 bd 7e c8 26 3f
       0.2844532 -0.13557732 -0.11750948 0.65149677
0000c0 2c 13 1b 3d f7 23 66 be ce c8 8c bd f4 7d ba 3d
       0.03786008 -0.22474657 -0.06874238 0.09106055
0000d0 ab 0e 8b bd 7d fd 7e bd 50 b4 f4 3e e5 06 d0 bd
       -0.06789907 -0.062253464 0.47793818 -0.10157565
0000e0 4d 27 89 3e 1f d3 94 bd 5d e9 4f 3d 7a 10 68 3e
       0.26787797 -0.07266831 0.050759662 0.22662535
0000f0 37 74 61 3c 88 0e 1b 3e 44 f0 f6 be a3 0b 09 3d
       0.013760618 0.15142262 -0.48230183 0.033458363
000100 58 d4 f3 3e 1b 4a 9a 3e a5 ee 32 3e 90 f4 6f be
       0.47622943 0.30134663 0.17473848 -0.23433137
000110 a2 95 84 3d af 51 71 be 8b 83 50 3e 00 08 37 3e
       0.06473853 -0.23566316 0.2036268 0.17874146
000120 24 c5 be be 53 e7 ed 3a 78 0d 80 3e 23 88 24 3e
       -0.3725978 0.0018150605 0.25010276 0.16067557
000130 ad 73 24 3e b2 88 b9 3e da 0a a1 3e ab d6 f2 3d
       0.16059752 0.36237103 0.31453592 0.11857351
000140 29 ac cf 3b e8 40 3a 3f 33 d7 85 3e d3 64 23 be
       0.0063376618 0.7275529 0.26140746 -0.1595643
000150 e1 7b 49 3e 9a 2d a0 be ad d4 65 be d0 fa 0d 3e
       0.19676162 -0.3128479 -0.2244441 0.13865209
000160 7e f0 b7 be 8e bc 2d 3c 58 14 8a 3d 25 e5 45 bd
       -0.35925668 0.010604037 0.067421615 -0.048314232
000170 37 92 76 3e a8 e7 6b be ca e2 33 be ee e5 e4 bd
       0.24079214 -0.23037589 -0.17566982 -0.11176668
000180 2d 97 93 3e ab 04 56 be 7e 13 0b 3d 99 ef ab 3b
       0.28826275 -0.20900218 0.033954136 0.005247068
000190 3c 23 73 3e 43 42 9e bd bd 7b 8e be 22 c8 85 bd
       0.2374391 -0.07727482 -0.2782878 -0.06532313
0001a0 88 c2 0a bd a2 23 13 3e 90 9a a1 be 24 2f 29 3d
       -0.033876926 0.14369062 -0.31563234 0.041304722
0001b0 13 52 0b be ab 21 29 3e 23 96 fa bd d5 f9 a4 3d
       -0.13605528 0.1651675 -0.122356676 0.08055464
0001c0 8b f3 aa bd a8 74 69 be 9f ae 4f 3e b8 dd 1e 3e
       -0.083472334 -0.22798407 0.20281456 0.15514266
0001d0 3c 8a a7 3e a5 bd 5d bd ca 98 22 be 53 22 be bd
       0.32722652 -0.054135937 -0.15878597 -0.092838906
0001e0 1b a8 d6 bc d3 a3 3d bd 97 5e 3c be 3c 54 b6 bd
       -0.026203206 -0.046298813 -0.18395458 -0.08902785
0001f0 dd 82 cf bd 09 4f 8f be 8f 70 86 3e e5 cb 0f bf
       -0.10132382 -0.27989987 0.2625775 -0.56170493
000200 f6 4a 64 3d 50 25 ad 3d ae af 80 be fc 96 f6 bc
       0.05573555 0.084543824 -0.25134033 -0.030101292
000210 1b bc 06 be 1e 78 ff 3d c4 0c 2b 3e 56 86 6b 3e
       -0.13157694 0.124740824 0.16704088 0.23000464
000220 ad da 3b be c3 9e 98 3d a2 55 da 3d 37 17 89 3d
       -0.18345137 0.074521564 0.106608644 0.06693881
000230 e0 70 a0 3e 7a 66 ae 3d f1 ec 87 3e 2e 2b be 3d
       0.31336117 0.085156396 0.2654796 0.092855796
000240 94 b8 1f 3a 21 9d 63 3e 38 b9 5d 3d 49 4d 43 bd
       0.0006092873 0.22227909 0.054131716 -0.047681127
000250 30 0c 01 3e bf f4 22 3e bc 82 ad bc 67 b3 55 3b
       0.12602305 0.15913676 -0.021180503 0.0032608153
000260 fe 55 c5 3d 47 94 0f 3c 77 72 c4 3b ad 17 88 3e
       0.09635542 0.008763379 0.0059950906 0.26580563
000270 b4 dd e1 3e e3 99 20 3d 70 a0 24 3e e3 91 c6 bd
       0.4411446 0.039209258 0.16076827 -0.096957944
000280 f8 d5 f4 be 59 66 44 3e 6d 31 a3 3e 88 1f 95 be
       -0.47819495 0.19179668 0.31873646 -0.2912562
000290 fb 94 ab bd 7e 52 8a 3d 89 14 b7 3e 50 e1 cf 3c
       -0.08378025 0.067540154 0.35757855 0.025375992
0002a0 98 42 04 bf d1 28 e1 bd ad 9e bf 3d b5 6a d6 bd
       -0.51664114 -0.10994113 0.09356437 -0.104695715
0002b0 3f 0a 91 3e a5 ba 4c 3d f5 1c 35 bd 67 43 ed bc
       0.2832813 0.049982686 -0.04421707 -0.028962804
0002c0 2f 28 10 3e a1 86 8c 3e e1 e8 a0 bc fc 03 90 be
       0.14077829 0.27446464 -0.019642295 -0.2812804
0002d0 71 81 bc 3e ad 91 41 3d 85 93 9e bd 0e 6d 43 bd
       0.36817506 0.047258068 -0.07742981 -0.047711425
0002e0 ea 38 d8 3d 47 58 3f be 7d 24 9e 3d 8e c4 b6 3e
       0.105577305 -0.18686019 0.07721803 0.35696834
0002f0 dd 78 c2 3d e0 eb 65 be 9b d9 bd bd 19 c7 88 be
       0.09495709 -0.2245326 -0.092700206 -0.267144
000300 e9 f8 a4 3c ab 69 31 bd b1 e6 bb be f8 8a 3c be
       0.02013822 -0.043313663 -0.3669944 -0.18412387
000310 68 80 76 3e 1b ca 86 3e 5f 3c 12 3e 47 54 39 be
       0.2407242 0.2632607 0.14280842 -0.18098556
000320 b3 49 5c be 27 eb 82 3e 45 ef 50 bd 3f 52 b0 bd
       -0.21512489 0.25570032 -0.051009435 -0.08609437
000330 80 f9 a4 bc 4f 3c 0e be 2e fa b3 3d e0 20 da 3c
       -0.020138502 -0.13890193 0.08787952 0.026627004
000340 50 2c ee 3c cb c8 e4 3e 81 6c 7b be 4f 99 7f 3d
       0.029073864 0.44684443 -0.2455311 0.062402066
000350 2f 0c 1d 3f 47 1e c5 3d 74 cf e4 bc f4 4a 32 be
       0.61346716 0.096249156 -0.027930953 -0.17411405
000360 8e cf 6e 3e ca 28 68 be 9f c1 ec be 27 75 16 be
       0.23321363 -0.2267181 -0.4624147 -0.14693128
000370 60 b1 91 3e 8d a8 8f 3d a9 b4 0b bb 91 9f 69 be
       0.2845564 0.070145704 -0.0021317399 -0.22814776
000380 49 ae c9 bd a4 f9 fe 3d e4 8a c1 bd 8a c2 e2 be
       -0.098476954 0.12449959 -0.094503194 -0.44289047
000390 2f 29 df 3d 2e d4 b3 3d ef a1 34 3d 0d 67 87 3e
       0.10896527 0.087807044 0.044099744 0.2644581
0003a0 e9 f7 79 be 62 1c b2 3d cf 6e bb bd ad 44 f8 3e
       -0.24410976 0.0869682 -0.091519944 0.48489895
0003b0 44 07 9e bc ab 4f 9b 3e 81 72 82 3d f6 57 a4 3d
       -0.019290574 0.3033422 0.06369496 0.0802459
0003c0 5e fd 8e 3e 5d 34 98 3e c2 b9 e2 bc 6b db c6 3d
       0.2792768 0.2972745 -0.027676467 0.097098194
0003d0 d3 b4 d7 bd a6 51 66 be 2c 42 2a be 86 b4 1f bb
       -0.10532536 -0.22492084 -0.16626805 -0.0024369075
0003e0 ce b6 21 bd f3 3d 2f 3e 17 c8 f8 bd 3e 43 7b 3e
       -0.039480977 0.17113476 -0.12147539 0.2453737
0003f0 c5 73 0d be bd 9a c0 be be 3f d2 3d ec 35 a1 3e
       -0.13813694 -0.37618056 0.10266064 0.31486452

decoder.0.bias f4 [1568]
000000 98 3c dc 3d 81 98 c9 3e 42 be 4b 3e 16 84 8e 3f
       0.10753745 0.39374164 0.19896796 1.113406
000010 39 17 c2 3f 11 5e 95 3f 8a 90 1b 3f 85 72 57 3e
       1.5163337 1.1669332 0.60767424 0.2103978
000020 d6 cf 20 3f af 77 16 3f 4e d9 3b 3e 87 ec f7 bd
       0.6281713 0.5877637 0.18344614 -0.12105661
000030 f4 e8 00 3f 57 cc cb 3e 37 2b 97 3e 48 82 d6 3e
       0.5035546 0.39804336 0.29525158 0.41896272
000040 35 5c 40 be e8 fb 9e 3e 7a 48 bd 3e 40 77 72 3e
       -0.18785174 0.31051564 0.36969358 0.23678303
000050 e2 c4 85 be 26 16 62 3e 6f a4 3f be 3e ed 6f be
       -0.26126772 0.22078761 -0.1871507 -0.23430344
000060 3e 58 d8 3e db d5 30 bf e6 16 20 be 0d a7 8d be
       0.42254823 -0.6907632 -0.15633735 -0.27666512
000070 22 9a 83 3e 2d 3c 69 3e a3 ea dc 3e 9f e6 1f 3f
       0.25703532 0.22776861 0.43147764 0.62461275
000080 12 bf d5 bf 41 c8 45 3e e7 33 ff 3e 79 1e f7 3e
       -1.6698935 0.19314672 0.49844286 0.48265436
000090 f6 c2 97 3c 69 af d5 be 19 5c 2a 3f f8 56 6c 3d
       0.018525582 -0.4173539 0.6654678 0.057700127
0000a0 c4 28 05 be 19 7c d0 3e e4 36 ab bc e5 02 6f be
       -0.13003832 0.4071968 -0.020900197 -0.23340948
0000b0 5b 67 94 3e 53 8c 5c 3f d2 00 98 bd 56 a2 a5 3e
       0.28985104 0.8615162 -0.074220315 0.32350415
0000c0 65 7d db 3e de d3 cc bd 45 6d c4 bc 28 0f c2 be
       0.42869106 -0.10001348 -0.023977885 -0.37902188
0000d0 7d 2f 30 bf 03 a5 80 bf 97 03 43 bf f4 9e df be
       -0.6882246 -1.0050358 -0.7617735 -0.4367596
0000e0 42 91 30 be bf c8 0f bf e5 57 d1 bd a8 e9 40 bf
       -0.17242911 -0.5616569 -0.10221843 -0.7535653
0000f0 79 12 74 be eb 4e 8f 3b 53 b5 83 bd b4 74 b0 be
       -0.23835172 0.0043734214 -0.06431069 -0.34464037
000100 8e 0b f4 be 3e 47 5c be c5 84 07 3f f9 a0 7c be
       -0.47665066 -0.21511552 0.52936965 -0.24670781
000110 98 f3 83 be 5c 61 39 be aa ec 5c be 19 fb 40 bf
       -0.25771785 -0.18103546 -0.21574655 -0.75383145
000120 00 59 af 3d 0c 6d 05 3e 7e 99 37 3e ce 29 cd 3d
       0.08561897 0.1302988 0.17929646 0.10017739
000130 c1 0d 46 be 02 96 ff be bf f2 a1 be 35 ab 3e bf
       -0.19341184 -0.49919134 -0.31630513 -0.7447999
000140 09 6e ba bd ed 20 f9 3f c1 8e ee be 63 31 ca 3d
       -0.09103019 1.9463173 -0.46593288 0.09872701
000150 70 05 35 bf 07 76 35 be fe 48 dc be 08 86 8f 3e
       -0.7071142 -0.17720805 -0.4302444 0.28031945
000160 52 63 e0 3d d8 db b4 3d 92 05 b8 bd 67 b5 ae be
       0.10956444 0.08830994 -0.089854375 -0.34122774
000170 84 f5 5f be ea 5d 06 3f 31 17 b2 be 34 80 00 bf
       -0.21871 0.5248705 -0.3478332 -0.5019562
000180 38 17 32 ba 25 f0 17 3e 30 25 f4 3c 67 ac 42 be
       -0.0006793621 0.14837702 0.029802889 -0.19011079
000190 de 49 b7 be ae 0f 9a bf 8e 48 b4 bf 26 87 ba bf
       -0.35798544 -1.2036035 -1.4084642 -1.4572494
0001a0 85 78 25 bf 16 24 d6 be 07 cd eb be 6c 30 6b bf
       -0.64637023 -0.41824406 -0.4605486 -0.9187076
0001b0 4a ee 3b bf 74 fd 1b bf 10 bf 6d bf bb 36 9c bf
       -0.73410475 -0.60933614 -0.92869663 -1.2204202
0001c0 52 5c 05 bf c8 f7 73 bf 35 0f 55 be 9c 99 0f be
       -0.52093995 -0.9529996 -0.20806582 -0.14023441
0001d0 8d 99 7b bf 30 b3 90 be f3 89 45 bf 3b 38 e1 bd
       -0.98281175 -0.2826171 -0.7716362 -0.10997053
0001e0 74 00 06 bf d1 39 12 3e 34 fd 05 be e8 e0 0a be
       -0.5234444 0.14279868 -0.1308487 -0.13562357
0001f0 98 f3 88 be 5b 20 4d be 34 82 36 be 66 2c 85 be
       -0.26748347 -0.20031874 -0.17823106 -0.26010436
000200 41 40 da bd bd 55 8e 3e aa 22 72 bf 32 09 d5 3e
       -0.10656787 0.27799788 -0.94584143 0.41608578
000210 4a d2 c2 3e d8 58 34 bf ee e6 6d bf ff 9c 48 3f
       0.38051063 -0.70448065 -0.92930496 0.7836456
000220 a0 3b f6 3e f6 dc 03 bd 57 8c 09 3e fc ad eb 3e
       0.48092365 -0.032193147 0.13432442 0.46031177
000230 aa b5 54 be b5 07 72 bf 9b ba e0 be 7b d1 10 3f
       -0.20772424 -0.9454301 -0.4389237 0.5656964
000240 d1 5b 27 bd 90 87 f3 bc 62 13 2c bf a3 e3 a9 3d
       -0.040859047 -0.029727727 -0.67217076 0.082953714
000250 8f ad 8f 3e 49 58 5d 3f bc 2c f4 3f 4f b4 e1 3f
       0.28062102 0.8646284 1.9076152 1.7633151
000260 76 b2 a6 3f b6 32 fb 3e 0f ce 05 3f 97 c0 00 3f
       1.3023212 0.49062127 0.52267545 0.5029387
000270 93 ea d6 3e 01 8b 0e 3f 61 5e fd bd 71 1e 74 3f
       0.4197584 0.55680853 -0.12371517 0.9535895
000280 7f 93 93 3f b4 98 c7 3e 2f 62 47 3f 91 3b 1a 3e
       1.1529387 0.3898369 0.7788419 0.15061785
000290 d8 b0 7f 3e fb 65 64 3f a1 9f 6a 3e ee d2 29 3f
       0.24969804 0.8921811 0.22912456 0.6633748
0002a0 c0 08 b8 3e ec 4c a4 3e cc d3 20 3f e5 ea 40 bd
       0.35944176 0.32089937 0.62823176 -0.047099013
0002b0 33 c8 9e bd 64 f1 07 3f d5 07 88 3e bb b5 80 3e
       -0.07753029 0.5310271 0.26568475 0.2513865
0002c0 a7 19 b2 3e 15 47 16 3f fd 8d 12 bf 49 37 9c be
       0.34785196 0.5870221 -0.57247907 -0.3051093
0002d0 4e 1e ab be da 4a fb 3e ff 82 54 3f 9a 8b 21 3f
       -0.33421558 0.49080545 0.83012384 0.6310364
0002e0 0e ff 07 bf 49 2c 7d be fe 30 dd bd 26 a7 47 bd
       -0.5312356 -0.24723925 -0.1080036 -0.04874339
0002f0 09 0a 06 3e f6 4d 09 3f 5a 2d 3f 3f 1d 3b 32 3f
       0.13089766 0.53634584 0.74678576 0.6962145
000300 de f7 94 bc 3a ab 97 3e 3d 25 13 3e a1 9e 07 3f
       -0.018184599 0.29622823 0.14369674 0.52976424
000310 fb 57 b3 bd db 9f 60 bd 39 70 2c bf 35 f6 a3 bf
       -0.08757015 -0.05483995 -0.6735874 -1.2809511
000320 fc 0d 35 bf 56 a8 00 bf e7 e4 70 be 7b 57 de be
       -0.70724463 -0.5025686 -0.2352482 -0.43426117
000330 41 c3 1e bf 80 2b 85 3e f5 a9 2f bd 2a f0 ed 3e
       -0.62016684 0.2600975 -0.042886693 0.46472293
000340 29 2c 1b bf 40 cf c4 bd 30 f2 bd be 52 db 3b bf
       -0.6061426 -0.09609842 -0.37098837 -0.7338153
000350 9b cb 14 3e 2b 3d ab be 87 54 06 bf 5f a3 59 be
       0.14530794 -0.33445105 -0.5247273 -0.21253727
000360 84 31 99 3e b6 01 08 be a9 4f 0b be e4 1f 8f be
       0.2992059 -0.13281903 -0.13604607 -0.27954018
000370 85 e6 2c 3e ba 5c fc 3d b3 bf 17 bf 17 dd 2c 3f
       0.16884811 0.12322374 -0.59276885 0.67524856
000380 76 7f e2 bd 7a 64 dd 3c 9d e3 30 bf 62 bd 26 3e
       -0.110594675 0.02702545 -0.6909731 0.16283181
000390 6f 1e 7f 3f 02 ea 47 bf b3 f0 a7 3d 25 18 44 bf
       0.9965581 -0.7809144 0.082002066 -0.7659934
0003a0 bd 96 71 be 11 6e b8 3e a0 ae 86 3e ec a0 69 3f
       -0.23592658 0.36021474 0.26305103 0.9126117
0003b0 cc c4 22 be 2a a0 22 3e d6 42 a6 be 16 56 e9 be
       -0.15895385 0.1588141 -0.32472867 -0.4557349
0003c0 ef 71 58 bf 6e a9 ca be 73 e1 10 bf 04 7c 88 be
       -0.8454885 -0.3958239 -0.5659401 -0.26657116
0003d0 59 62 5e 3e 30 1d 66 be 16 fa c9 bd ea e5 f8 be
       0.21717204 -0.22472072 -0.09862153 -0.4861291
0003e0 1c 73 a7 bf 15 17 b7 bf 71 bd 8f bf 54 ee 02 bf
       -1.3082004 -1.4303919 -1.1229688 -0.5114491
0003f0 f7 7d 12 3e d1 7b 05 bf 09 35 fa be cf 34 e6 bd
       0.14305864 -0.52142054 -0.48868588 -0.11240541

decoder.2.weight f4 [32, 16, 3, 3]
000000 a6 b3 59 be 3e de 0d 3e a0 23 08 3e c9 73 98 be
       -0.21259937 0.1385431 0.1329484 -0.29775837
000010 11 42 bf 3d 3c cb 7d 3e 15 69 72 be 3b 8e 3f 3d
       0.09338773 0.24784559 -0.23672898 0.0467665
000020 36 1b a4 3e d2 d4 24 be 45 cb da bd b3 25 b9 3d
       0.3205201 -0.1609681 -0.10683302 0.09040394
000030 b9 7f 81 bc ad 50 a1 3e ef df ea 3e 09 66 6a 3b
       -0.015807973 0.31506863 0.45873973 0.0035766384
000040 0b 3d 96 3d 77 9d 19 3d e6 3f d8 3d 00 91 cd 3e
       0.07335862 0.037503686 0.10559063 0.4014969
000050 cb e5 70 3c 1e dd 00 3e 93 8a ce 3e 5b 0a aa bd
       0.014703224 0.1258435 0.403401 -0.083027564
000060 9c dd 20 3b 21 d6 dd bd 78 64 3d be 95 57 71 3d
       0.0024546152 -0.108318575 -0.18495357 0.058921415
000070 f5 76 47 3d 1c 69 12 3d 4c ec 0d 3e 5e 58 b8 3d
       0.04869743 0.03574477 0.13859671 0.0900123
000080 23 df 4c bb 28 0d 85 3d ae b3 7c 3e c9 c9 cf 3c
       -0.003126093 0.0649665 0.24677917 0.025364773
000090 79 38 46 bc d4 77 51 3d 3c 56 10 3e 58 bf 90 3d
       -0.012098425 0.051139668 0.14095396 0.07067746
0000a0 0a 8d b8 3c f2 8b 48 3d cb e3 4c bd e9 9d 68 be
       0.02252819 0.048961587 -0.050021928 -0.22716488
0000b0 fa 49 64 3d f5 93 7a 3d c7 3e b4 3d 53 81 62 bd
       0.055734612 0.06117626 0.08801036 -0.055299114
0000c0 1e 33 c2 bc 3d ac c4 be 07 5d 98 3d a9 6a 68 be
       -0.023706015 -0.38412657 0.074396186 -0.22696938
0000d0 ee a0 e4 bd bd bd 5e bb a0 d3 3a be e3 37 a3 be
       -0.111635074 -0.0033987605 -0.18244791 -0.31878576
0000e0 81 fa 96 3d 3f 92 14 3d 3f 55 02 bd 8d 35 44 3e
       0.073719986 0.036272284 -0.03181958 0.19161053
0000f0 f3 fb 3c be fb b9 0f 3c a0 ab ec 3c 31 40 28 bc
       -0.18455486 0.008772369 0.02889043 -0.010269211
000100 65 ee 3d be 60 fa 85 be 59 ab d5 3d d4 00 8d 3d
       -0.18547972 -0.26167583 0.104330726 0.068849236
000110 e9 b4 a0 3d 9a 19 f1 3c 05 15 2c 3e 60 02 b2 3d
       0.07847006 0.029431153 0.16804893 0.08691859
000120 94 dc 54 3e 5b b6 9b bd f2 ed 18 3e 34 30 b0 3e
       0.20787269 -0.07603141 0.14934519 0.34411776
000130 fb 72 9d 3e 82 e3 c2 3d e8 64 ab 3d 92 bb 9b 3e
       0.30751786 0.0951605 0.08368856 0.30416542
000140 8c 82 73 bc 52 73 e4 3c 7a e3 94 3d b2 9c 12 be
       -0.014862668 0.02788702 0.0726995 -0.14317587
000150 a6 22 d2 3e 5f 48 ed 3e 4b bc 85 3e 10 20 af 3d
       0.4104206 0.46344277 0.2612022 0.08551037
000160 20 fb 18 3d bd b6 3d be 1d a9 b7 bc dc d5 a1 3e
       0.037348866 -0.1852674 -0.022419507 0.31608474
000170 b2 78 cb 3d 6a d0 a3 3d aa 81 c3 3e 33 b1 d8 bb
       0.0993513 0.07998736 0.38184863 -0.0066129207
000180 96 66 4d 3d 78 c4 cc bb c2 53 8d be 98 21 86 3d
       0.05014666 -0.006249007 -0.27602965 0.06549376
000190 4d 99 34 bc 32 b4 cd ba 25 79 27 be 6f 79 58 be
       -0.011022878 -0.0015693961 -0.16354807 -0.21140073
0001a0 82 bf 20 3e 30 55 19 bd 0c 88 95 3e 42 2b e1 3e
       0.15698054 -0.037434757 0.29205358 0.43978316
0001b0 95 20 0f be 1b fe ad 3c 13 59 8e 3d d3 a6 f8 3d
       -0.13977273 0.021239331 0.06950583 0.12141194
0001c0 a8 d5 d8 3e ff 8d bb 3e 05 71 be 3e ed 69 1d 3e
       0.42350507 0.36631772 0.37195602 0.15372439
0001d0 e5 85 67 3e 53 4c 7d bd ab 7a fc bc d3 f2 0c 3d
       0.2260967 -0.061840367 -0.030820211 0.034411263
0001e0 cb 17 78 bd b0 01 82 be 65 4c e6 3d d3 1b 4b 3d
       -0.060569566 -0.25391912 0.1124504 0.049587082
0001f0 82 c3 67 3e f0 6e 95 3e ed 95 6e be 5c 00 ff bd
       0.22633174 0.291862 -0.2329938 -0.124512404
000200 fb ec 31 bb fd b3 40 3d 85 72 a1 3e 26 15 2e 3e
       -0.0027149308 0.04704665 0.31532684 0.17000255
000210 3a ab 2c 3e aa fc f2 3b 22 5a 33 bc ad aa a6 bc
       0.16862193 0.007415374 -0.010946782 -0.020345056
000220 5f 7d 38 be 3e d0 7a 3e 7c 98 96 3e 10 06 be 3e
       -0.18016575 0.244935 0.2941321 0.37114
000230 0a d9 ad be 79 91 c5 3e 14 1c 6b 3e 85 aa 93 bc
       -0.3395465 0.3858755 0.2295993 -0.018025646
000240 85 de e1 bd 3f ec c4 bd 2a 33 23 3d f5 31 64 be
       -0.1102877 -0.09615373 0.039843716 -0.22284682
000250 11 d2 ee be 5c 17 d4 3b 29 2e ff 3d af c6 0a 3e
       -0.46644643 0.006472511 0.12459976 0.13552354
000260 93 59 4b 3e c0 0c 89 be e8 25 94 be d0 65 45 3e
       0.19858389 -0.2676754 -0.2893517 0.1927712
000270 ae f3 22 be cc 58 13 bf 7d 46 1b 3c 42 29 09 3e
       -0.15913269 -0.5755737 0.009477255 0.13394645
000280 7a b8 28 bd c2 11 b4 3d 0a 16 c1 3c 09 10 00 3e
       -0.041191556 0.087924495 0.02357008 0.12506117
000290 33 9a bc 3d 72 22 2c 3e 64 7d ae 3e 8e 08 37 3e
       0.09209099 0.16810015 0.3408004 0.17874357
0002a0 a7 84 9d 3d 7b a7 e0 3d fb 56 bf 3d b8 4f ac 3d
       0.07691317 0.10969444 0.09342762 0.08413643
0002b0 4c a1 98 3c bc 11 48 3e 1d 73 58 bd 6c 54 06 bc
       0.0186316 0.19538015 -0.052844156 -0.008198839
0002c0 21 73 15 bd 79 43 08 3e 91 75 dd bd 03 07 07 be
       -0.03648675 0.13306989 -0.1081344 -0.13186269
0002d0 0a 7c 0b be d1 1a 61 3e 02 5b 15 3e 31 8b 50 be
       -0.13621536 0.21982886 0.14585498 -0.20365597
0002e0 6f a7 e7 3e d1 86 9b 3d 81 c3 90 bc a7 1b 2e 3d
       0.4524493 0.075940736 -0.017671349 0.04250684
0002f0 23 aa 06 3b 3e 5c 20 be cf 68 ce 3d 79 c1 3c 3d
       0.0020548187 -0.15660188 0.100785844 0.046082947
000300 01 f2 a0 be 96 e6 d1 3e 04 12 8e be 59 6f ba 3d
       -0.31434634 0.40996236 -0.2774812 0.09103269
000310 89 8f 33 3e 27 f5 2d 3e 3a 7b 08 3c aa 95 37 bc
       0.17535223 0.1698805 0.008330161 -0.011205116
000320 c0 d9 1f 3d 27 7f ee bd 8d 8b 82 be 78 55 cd bc
       0.039026022 -0.11645346 -0.25497094 -0.025065169
000330 be 5f c7 3d 9e 28 7b be 7f 4f f2 39 21 14 02 3c
       0.09735058 -0.24527213 0.00046217066 0.007939369
000340 c1 59 3e 3c c7 d6 a2 bb 26 21 0e be d8 4b 89 3e
       0.011618079 -0.004969451 -0.13879833 0.26815677
000350 af 39 a1 bd 04 9e 7d bc fc de e8 3c c9 d1 20 be
       -0.078723304 -0.015479568 0.02842664 -0.15705027
000360 cc 9c 7d bc 16 a7 74 bd ec dd 7d bd 14 ac 3a be
       -0.015479278 -0.059729658 -0.06197922 -0.18229705
000370 8b 64 77 3d 96 db 38 3e ba 57 a3 be 29 4e 12 be
       0.06039862 0.18052515 -0.31902868 -0.14287628
000380 d7 67 cb 3c 48 4c 80 bd 4c 6a 5c be 0b 35 8d bd
       0.024829788 -0.062645495 -0.21524924 -0.06894883
000390 f1 b2 1a 3e a6 98 8a be fc 0a f4 3c d6 a6 16 be
       0.15107323 -0.27069587 0.029790394 -0.1471208
0003a0 21 4e 1c 3e 79 e3 ff bc 4b 6f 89 bc 23 7e 60 3d
       0.15264179 -0.031236397 -0.016776701 0.054807793
0003b0 f9 7f 1a 3e 5d 7d c7 3d e2 71 35 3e cc f4 93 3e
       0.1508788 0.09740708 0.17719224 0.28897703
0003c0 bf 11 2e 3d ec 21 7f 3d 78 b1 f9 3d e1 da 22 be
       0.042497393 0.06228821 0.121920526 -0.15903808
0003d0 df 29 a5 bd 31 7b 96 bd e1 d4 a2 bd f2 23 a6 be
       -0.08064627 -0.07347716 -0.0795076 -0.324493
0003e0 ec aa fd be 9f 0a 98 3e 62 c3 8a 3c 88 0c a3 bd
       -0.49544466 0.29695603 0.016938869 -0.079613745
0003f0 9e b0 05 bb 36 0b 2a be b2 4b 80 be 48 82 0d bd
       -0.0020399462 -0.16605839 -0.2505775 -0.034548074

decoder.2.bias f4 [16]
000000 a3 49 96 be ac 03 89 3e 9e 15 02 3f 45 e4 3a bf
       -0.29353055 0.26760614 0.50814235 -0.7300456
000010 dc b2 82 bf e0 13 58 bf 57 10 98 be b5 88 4d bb
       -1.0210834 -0.84405327 -0.29699966 -0.0031362001
000020 f2 33 59 3f 56 ad b0 be 36 1a d0 3e 6b 7a 76 3e
       0.8484489 -0.34507245 0.40644997 0.24070136
000030 ca 63 23 3f 39 61 b9 3e 92 82 6e 3e 00 c7 16 bf
       0.6382414 0.36206988 0.23291996 -0.588974

decoder.4.weight f4 [16, 1, 3, 3]
000000 6b 6c 89 3d f4 67 17 3e 1b b3 93 3d 4c 8e 8e 3e
       0.06710132 0.14785749 0.07211896 0.2784294
000010 e1 e4 ca 3e 74 bf 17 3e 2b 75 22 3e 1f 13 1d 3e
       0.39627746 0.14819127 0.15865009 0.15339325
000020 01 42 9f 3c b1 ce 4b be 5b 17 c2 be f1 58 75 be
       0.019440653 -0.19903065 -0.37908444 -0.2395971
000030 ca 9b 28 be 99 d9 b4 be 18 9f 77 be b8 cb 35 3d
       -0.16465679 -0.35322264 -0.24181783 0.044383734
000040 b2 a3 32 b9 f2 a4 1e bd c1 46 20 3d 9f 7c c2 3d
       -0.00017036384 -0.038731523 0.039129976 0.09496426
000050 76 30 ad be 22 c2 05 3e 06 e5 3b 3e 7b 44 15 bf
       -0.33826035 0.13062337 0.18349084 -0.5830762
000060 a6 f5 ce 3d c7 f9 ae 3d 6e 83 9d be 84 1d 94 3d
       0.101054475 0.08543735 -0.30764335 0.07232192
000070 2c c8 5d 3e 8e 7d 4c 3e 96 ef 61 3e c2 7c e6 3e
       0.21658391 0.1996977 0.22064051 0.45017058
000080 e2 7d a3 3e 69 c8 0c 3e 6b eb 7d 3e 75 c4 08 3e
       0.31931978 0.13748325 0.24796836 0.13356192
000090 57 68 26 3d bf be ba 3d 4a 1e b4 3d 1f a1 77 3e
       0.04062685 0.09118413 0.0879484 0.24182557
0000a0 42 cc d1 3e 1b e7 84 3e c8 44 82 3e 0b 31 c2 3e
       0.4097615 0.2595757 0.254431 0.37928042
0000b0 7f 88 49 3e 06 11 c5 3d 59 dd 7e 3e 91 b8 55 3e
       0.19680975 0.096223876 0.24889125 0.20871188
0000c0 09 95 68 3e 62 35 ea 3e 36 ca 97 3e eb f0 0a 3e
       0.22713102 0.45743853 0.29646462 0.13568465
0000d0 bc 39 5e 3e db 23 d1 3d 00 6b 93 3c 80 34 19 3d
       0.21701711 0.10211917 0.017995358 0.037403584
0000e0 9a 2b c0 3c 83 c9 35 be 87 04 a4 be 5a 99 3e be
       0.02345829 -0.17752652 -0.32034704 -0.18613186
0000f0 ed c8 a8 be 9d e0 06 bf 0a 6a 8a be a5 f1 28 be
       -0.32965794 -0.5268648 -0.27034026 -0.1649843
000100 2e c3 93 be 6e b4 12 be d3 76 8a be 78 1d 00 bf
       -0.28859848 -0.14326641 -0.2704378 -0.50044966
000110 b5 a0 52 be 4b 90 25 be b4 42 87 be 48 bc be bd
       -0.20569117 -0.16168325 -0.26418078 -0.093132555
000120 85 b4 1c bd 93 fa f3 bd be 3f 0e be d3 0c 2f be
       -0.038258094 -0.119130276 -0.13891503 -0.17094736
000130 13 8a c3 be e2 7e a0 be 15 7e 13 be 50 5d 73 be
       -0.3819128 -0.31346804 -0.14403565 -0.23766065
000140 c9 35 14 be 9b 80 a7 3d 10 bd 7d 3e e8 0f 21 3e
       -0.14473642 0.081788264 0.24779153 0.15728724
000150 16 20 69 3e 55 f6 ed 3e 42 ea 63 3e e8 e5 f0 3d
       0.22766146 0.46477 0.22257331 0.11762601
000160 54 81 4b 3e 47 0e 50 3d 06 e7 82 3d 10 ef 8d be
       0.19873554 0.050794866 0.063917205 -0.27721453
000170 45 52 b4 3d d4 2e 59 bc a1 90 1d bf 1f bb f6 3d
       0.08804754 -0.013255794 -0.6154881 0.12047409
000180 c5 6e 91 bd 96 22 ad be e5 13 96 3d ce 34 b8 3d
       -0.07101206 -0.3381545 0.07328013 0.08994447
000190 39 37 8e 3c 44 11 d6 bd 38 23 b7 bd d7 5c cc be
       0.017360317 -0.10452512 -0.08942264 -0.3991458
0001a0 23 a4 ba be ff 65 37 be c8 ce b0 be b0 7f 49 be
       -0.3645335 -0.17910002 -0.34532762 -0.19677615
0001b0 e9 63 fa bb 5c 0c 50 3c eb e6 af 3d 3a e2 25 be
       -0.0076413047 0.012698259 0.08588966 -0.1619958
0001c0 a2 53 74 be 65 13 46 3c c2 e6 2a be eb 59 7c be
       -0.23860028 0.012089585 -0.1668959 -0.24643676
0001d0 3b 18 26 bd e9 a3 32 be 0d 19 aa be 35 37 15 be
       -0.04055045 -0.1744534 -0.33222237 -0.14571841
0001e0 e6 d1 77 be e1 8b 68 be 72 19 0c 3d dc c5 91 3c
       -0.24201164 -0.2270961 0.034203954 0.017794542
0001f0 39 5a 0f 3e 67 c4 00 3e 57 f8 ed bd a4 95 85 be
       0.13999261 0.12574922 -0.11619633 -0.2609073
000200 e5 58 5b be 1e a0 3e be 7f f9 ce be 4e 30 aa be
       -0.2142063 -0.18615767 -0.40424725 -0.3323998
000210 1e 67 fd bc cc 2d d4 bd 2e 41 f5 bd d5 cb f6 3d
       -0.03093296 -0.103602976 -0.11975323 0.120505966
000220 10 02 89 3e 54 57 1c 3e c7 cc 69 3e b5 3a c8 3e
       0.26759386 0.15267688 0.22832023 0.3910729
000230 ab 2b 1f 3e fa 4d f9 3d 18 ae 14 3e 60 6e d0 3c
       0.15544002 0.12173076 0.14519536 0.025443256
