models/denoising_autoencoder_0.pth (torch, 160257 bytes, 19 tensors)

encoder.0.weight f4 [32, 1, 3, 3]
000000 0a bb 06 3e a5 7f 92 be f7 17 80 be bd ca 05 3e
       0.13157287 -0.2861301 -0.25018284 0.1306562
000010 a8 2a c0 bd 92 55 a5 be b9 f6 ca 3c 24 eb 0e be
       -0.09383136 -0.32291847 0.02477585 -0.13956887
000020 0f 1d ef bd b5 84 32 be 06 7d 08 3d c2 dd 91 bd
       -0.11675464 -0.17433436 0.033322357 -0.07122375
000030 fb c2 1c be 21 1d cb be 69 f9 14 be 85 5f b8 be
       -0.15308754 -0.3967066 -0.14548267 -0.36010376
000040 61 3f c3 bd a1 69 ca 3d 5a 5c 23 be a5 24 a6 3c
       -0.09533573 0.09883428 -0.15953198 0.020281145
000050 9e 5d 8c 3e 3f ac 89 be 7f ff 02 3c 52 80 19 3e
       0.27415174 -0.26889226 0.007995485 0.14990357
000060 3c 9c 02 be 58 94 bd bc 58 dc 69 3e a2 b0 40 3e
       -0.12754911 -0.023142025 0.2283796 0.1881738
000070 dd dd 87 3d 14 ab a7 bd 5e 9f 32 be 56 50 72 3e
       0.06634114 -0.081869274 -0.17443606 0.23663458
000080 3a bb 7f 3e 18 4e a5 be 1d ea 4a bd 7d dd 99 bb
       0.24973765 -0.32286143 -0.049539674 -0.004695593
000090 e7 82 44 be 90 aa 3b 3d f9 7a 4c 3d c4 cc 1e 3e
       -0.1919056 0.045816958 0.049921963 0.155078
0000a0 a4 72 92 be a6 47 1f be b1 6b 8b 3e a1 ad 6f 3d
       -0.2860309 -0.15554675 0.272306 0.058515195
0000b0 e6 ec 14 3d 1a 0b 72 3b d5 18 52 3d 2d 20 95 3e
       0.036358736 0.0036932887 0.051293213 0.2912611
0000c0 d0 e6 7f 3e d1 92 cc bb ab ed 83 3e 7b d2 04 3d
       0.24990392 -0.006243088 0.25767264 0.032427292
0000d0 d2 0b f1 3c 8f 45 ef 3d 12 74 8f be 1a ef 94 bb
       0.029424582 0.11683189 -0.28018242 -0.0045451047
0000e0 54 98 46 be 09 d8 94 be c0 8d 96 3c 7e 47 83 3c
       -0.19394046 -0.29071072 0.018378139 0.016025301
0000f0 bd 43 6c bc 8e b1 e8 bd 0b f6 50 be a1 27 07 be
       -0.014420447 -0.11361991 -0.20406358 -0.13198711
000100 61 a3 6a 3e 07 4b 15 bd 3f ad 09 be 64 80 15 be
       0.22913887 -0.036448505 -0.13444994 -0.14599758
000110 1c d2 d1 3d 3e 09 92 3e 7d c9 84 be b8 96 8b 3e
       0.10245153 0.28522676 -0.25934973 0.27263427
000120 3f ae 66 3e 9d 56 8e 3e 90 4d f4 bc ae 96 1f be
       0.22527407 0.27800456 -0.029822141 -0.15584823
000130 a7 b4 d9 3e 25 ed b4 3e 2c 8c 8c 3d 22 10 fe 3d
       0.4252064 0.35337177 0.06862673 0.12405421
000140 e4 9c e4 3d c6 94 57 3e b9 a6 ab 3e 0a 87 23 be
       0.11162737 0.21052846 0.33525637 -0.15969482
000150 aa 9f 0d be ab 8f 8b bd 76 64 60 3e b4 24 f3 bd
       -0.13830438 -0.06814512 0.21913323 -0.11872235
000160 2b ae 31 3e d0 11 5b be 47 3c b3 3e d7 18 c0 3d
       0.17351596 -0.21393514 0.35006925 0.09379738
000170 d7 9f 8f bd dc bd 6c 3e f0 df db bd 47 28 bb bc
       -0.07012909 0.231193 -0.10736072 -0.022846354
000180 b5 75 0f 3d 52 d9 9d 3d 72 7e 31 3e 3c d4 d2 bd
       0.035024364 0.07707466 0.17333391 -0.10294387
000190 16 fd b1 be 8c 06 67 3c 34 5f bd 3d 9f 98 9e 3d
       -0.34763402 0.014100682 0.09246674 0.07743954
0001a0 58 21 93 3e 81 cf 64 3e f0 e7 94 3e 1c 77 91 bd
       0.28736377 0.22344781 0.29083204 -0.071027964
0001b0 78 f2 63 bd 48 37 2d be c0 9b a2 3d 4f 4f 32 be
       -0.055651158 -0.1691562 0.07939863 -0.17413066
0001c0 3f 9f 5b 3e 20 6b 01 3b 45 cf 9b be a4 5f 82 3e
       0.21447466 0.001974769 -0.30431572 0.25463593
0001d0 2f 80 aa 3d 94 e5 33 be 74 36 93 3e 00 87 82 3e
       0.0832523 -0.17568046 0.28752482 0.25493622
0001e0 55 c8 3a be 00 58 a3 3e 2c 04 9e 3d f3 35 84 3e
       -0.18240483 0.31903076 0.077156395 0.2582241
0001f0 c6 f2 2d be 07 fb 08 be e4 af 90 3e d9 7e 4e 3e
       -0.16987142 -0.1337701 0.28259194 0.20165576
000200 58 90 2c be ae 89 d5 bd 72 c7 7b be f0 c4 0e 3d
       -0.16851938 -0.10426651 -0.24587801 0.034855783
000210 b2 52 36 3e 90 cf 10 be 01 bb da bd 40 10 a2 bb
       0.17804983 -0.14141679 -0.106801994 -0.004945785
000220 21 3e 30 be 9d be 8f be 9f 98 8d 3e f3 10 aa 3e
       -0.172112 -0.28075114 0.27655503 0.33216056
000230 8b b5 a4 3d 8c 1b 2c 3d 13 51 00 be e1 cf 37 be
       0.08042439 0.04201846 -0.12530927 -0.17950393
000240 84 23 13 3e fb f3 48 be 8d c9 cf 3d 35 e5 21 be
       0.14369017 -0.19624321 0.10145865 -0.15810092
000250 7d f8 16 3e ff 17 8b be 3c 73 b9 be fe e4 d1 bb
       0.14743228 -0.27166745 -0.3622073 -0.006405472
000260 41 9c 60 be 31 07 d4 3d 6e d6 54 3e 7f 5c 59 3d
       -0.21934606 0.10352934 0.20784923 0.053066727
000270 50 d8 8d 3e 17 c5 78 3e 8c 5d c4 3d 52 70 c7 3d
       0.27704096 0.24293934 0.09588155 0.0973822
000280 de f6 7e 3e a3 10 43 3d 01 2b 82 bd 79 71 70 bc
       0.2489886 0.047623288 -0.063558586 -0.0146754915
000290 3b 3a af 3e dd 3c 37 3d 2d 3b 99 be 82 50 37 bc
       0.34224114 0.044735778 -0.2992796 -0.011188628
0002a0 50 ed f1 bd 4f 40 b4 3e 9b f4 85 3e ea 50 27 3e
       -0.11812842 0.35205314 0.26163182 0.1633946
0002b0 75 a1 86 3e 13 88 bf bc e0 76 66 3e 8f 9a 7f 3e
       0.26295057 -0.023380315 0.22506285 0.24961303
0002c0 f4 fb 8f be aa e2 41 be 31 50 d1 3d 4d c0 37 be
       -0.28121912 -0.18934122 0.102203734 -0.1794445
0002d0 2d 5a fa bd 03 b3 48 be 43 dc d0 3d 2b 19 66 3e
       -0.12224231 -0.19599538 0.101982616 0.22470538
0002e0 fa bc ca be 46 75 e7 bd b6 35 e4 3d f9 61 f7 3d
       -0.39597303 -0.11301665 0.11143057 0.12079234
0002f0 31 04 98 be c1 c0 1d be 79 80 3c be 58 c8 00 be
       -0.29690698 -0.15405561 -0.18408383 -0.12576425
000300 5f 23 07 be 13 78 0c be ca 1d 35 3e 5f 35 a8 3d
       -0.13197087 -0.1371768 0.17687145 0.08213305
000310 c8 84 a3 3e 1d 26 b8 3e f6 a8 10 3e ec 0b 45 be
       0.31937242 0.35966578 0.14126953 -0.19242829
000320 ac 5b de 3d 65 76 34 3e ea 1c ee bd 6a 02 c1 3e
       0.10857329 0.17623289 -0.11626609 0.37697154
000330 32 bd 75 3e a5 ed e7 bd 57 55 03 3c 2e 00 68 be
       0.23997954 -0.11324624 0.008015952 -0.22656319
000340 5c 82 72 3a d2 49 6b 3d 95 e2 28 3e fc 55 f1 3e
       0.00092509924 0.057443447 0.16492684 0.47135913
000350 f2 17 ca 3d 4a b0 e8 bd b9 0f fa 3d 69 68 5a 3e
       0.098678485 -0.113617495 0.1221003 0.21328892
000360 42 23 08 3e f1 57 3a 3e 90 65 1f 3e 9a b4 a4 3d
       0.132947 0.1819761 0.15566087 0.080422595
000370 a5 6b 58 3e e1 65 7f 3e 2d d0 5b be 0d 44 56 be
       0.21134813 0.24941207 -0.21466132 -0.20924397
000380 ea 01 20 3e c4 1f 15 3d fb c3 dc bd 7a 2f 85 be
       0.1562573 0.036407247 -0.10779568 -0.26012784
000390 4a c0 2b 3e 02 c1 aa 3d bb 44 a8 be 0a a3 cb 3d
       0.16772571 0.083375946 -0.32864937 0.099432066
0003a0 01 d9 88 3e fa 27 9d 3e 0b 5c 61 be 90 33 78 3e
       0.2672806 0.30694562 -0.22007768 0.2423842
0003b0 7c 1d bc bd f9 58 07 be 26 02 d9 3e 2d 44 4e 3e
       -0.09185311 -0.13217534 0.42384452 0.20143194
0003c0 55 6c a5 3e 42 80 92 3e 4e ad 8e bc 1c 07 59 be
       0.32309213 0.28613478 -0.017416622 -0.21194118
0003d0 32 f3 14 3d 8c e5 ab be dc 05 3a be 5a 8b a2 3e
       0.03636474 -0.33573568 -0.18166298 0.31746942
0003e0 f8 a7 88 3e 1c 9c 0a 3e da a3 1d 3e f8 e6 5c be
       0.2669065 0.13536114 0.15394536 -0.21572483
0003f0 13 fa 1a bd 6d 43 ba 3a 00 13 17 bd 5c f7 05 bc
       -0.037836146 0.0014210768 -0.036883354 -0.008176651

encoder.0.bias f4 [32]
000000 4b 1d 91 be 12 95 79 3e de 1f 89 3e a7 06 7f be
       -0.2834266 0.24373272 0.26782125 -0.24904881
000010 68 2a 73 3d bb a7 8c 3c 3d 2e a0 be 4f a8 37 be
       0.059366614 0.017169824 -0.31285277 -0.17935298
000020 11 bd b7 3d 95 79 55 be 5b 34 5b 3e c9 8f a5 be
       0.089716084 -0.20847161 0.21406691 -0.32336262
000030 d3 a5 4a 3e 0b 55 4d 3e ff a6 47 3e 34 2d 8c 3e
       0.1978982 0.20051973 0.19497298 0.27378237
000040 04 c4 a4 be 9b 4a 07 be ba 98 9c be 77 1d 6e 3e
       -0.32180798 -0.13212053 -0.3058527 0.23253427
000050 6a 96 86 3e 56 e8 a9 3e 22 0e a0 bd 7c 13 75 bd
       0.26286632 0.3318507 -0.078151956 -0.059833035
000060 a3 b2 8a 3e f2 39 56 3e c0 4b 8f 3d 0a 9a 1d 3d
       0.27089414 0.20920542 0.0699687 0.03847698
000070 bb 6e 16 be a7 9d 78 3e d5 a0 28 be b5 6f 9b 3d
       -0.14690678 0.2427889 -0.16467603 0.07589666

encoder.1.weight f4 [32]
000000 db 0e 7e 3f bc 2a 8e 3f ea 8b 78 3f 69 92 80 3f
       0.9924142 1.1106791 0.9708849 1.0044681
000010 6a d5 69 3f 17 ba 7f 3f cb 69 89 3f 94 ba 6f 3f
       0.9134127 0.99893326 1.073541 0.9364407
000020 71 92 7c 3f fb c4 6d 3f 24 be 6d 3f 66 44 73 3f
       0.9866095 0.92878693 0.92868257 0.9502624
000030 f1 8b 6a 3f 0e 62 72 3f 5a 8b 69 3f d3 91 72 3f
       0.91619784 0.9468087 0.9122826 0.9475376
000040 bb ec 69 3f 17 22 8a 3f 8a 21 6f 3f b4 45 85 3f
       0.9137685 1.0791653 0.9341055 1.0411897
000050 54 e0 72 3f 40 78 79 3f 39 3c 69 3f 5d bd 85 3f
       0.9487355 0.9744911 0.9110752 1.0448414
000060 20 f2 84 3f 8e 89 86 3f 71 9b 75 3f e8 b5 6a 3f
       1.0386391 1.0510728 0.9594031 0.91683817
000070 99 6b 87 3f 1b 8d 75 3f 2b 4d 80 3f 01 96 89 3f
       1.0579711 0.95918435 1.002355 1.0748903

encoder.1.bias f4 [32]
000000 de cf 3a 3e 91 5b 71 3e 79 1a f9 bd bc d2 1e be
       0.18243358 0.23570086 -0.121632524 -0.15510076
000010 ac e2 84 bd 0e 5f f4 bc 22 9d 04 3e 26 d3 84 3d
       -0.06488547 -0.029830482 0.12950566 0.06485586
000020 c7 28 1f be 9a b5 06 3d c7 6c 29 be 47 67 33 be
       -0.15542899 0.032888032 -0.16545402 -0.17519866
000030 ea d3 3c 3d 51 3e 0f be 59 ff ff bc e2 21 27 bd
       0.046100534 -0.13988616 -0.031249689 -0.040803798
000040 af e0 34 3e a8 17 1f be 63 b7 a5 bd 4e df fc bd
       0.17663835 -0.15536368 -0.08091619 -0.123472795
000050 dc 1b c5 3d 78 3e 35 be b2 aa d2 bc c2 38 8c be
       0.096244544 -0.17699611 -0.02571616 -0.27387053
000060 be 02 58 be 5a f9 e1 bd 79 6e 73 be 36 41 1d bd
       -0.21094796 -0.11033888 -0.2377261 -0.038392268
000070 3b 51 74 be 4e 51 fe bc f2 d6 d3 bd 4d f4 47 be
       -0.23859112 -0.031044628 -0.10343732 -0.19526787

encoder.1.running_mean f4 [32]
000000 74 c5 e9 be bc 60 0e 3c 3b 93 93 3e 45 b8 69 be
       -0.45658457 0.008690055 0.28823265 -0.228242
000010 e7 d5 65 3d a7 5c 55 3e b4 a9 02 bf 62 eb 14 be
       0.056112196 0.20836125 -0.51040196 -0.14542916
000020 85 ca b3 3e 3c 21 28 be 01 55 b5 3e 45 bb 70 be
       0.35115448 -0.16418928 0.35416415 -0.23508938
000030 a8 76 3f 3e 83 bf 99 3e 50 fd 37 3e 9e 91 89 3e
       0.18697608 0.30028924 0.17967725 0.2686891
000040 a6 5f f3 be ae cd fd 3d 3e a2 5a be 09 f8 95 3e
       -0.4753391 0.12392746 -0.21350953 0.29290798
000050 00 58 20 3e 4f d6 be 3e 39 63 1e 3d 39 26 b7 3d
       0.1565857 0.3727288 0.038668845 0.08942837
000060 55 a8 d1 3e 51 b2 84 3e 7f a9 85 3e 0d e0 0b 3d
       0.4094874 0.25917295 0.26105878 0.03414922
000070 66 56 e8 bb 72 41 75 3e 43 bf 5a bb 0a 11 8c 3e
       -0.0070903776 0.23950747 -0.003337816 0.2735675

encoder.1.running_var f4 [32]
000000 f3 67 bd 3d f9 57 14 3e 30 58 07 3d dd 15 a3 3c
       0.09248342 0.14486684 0.033043087 0.019907886
000010 93 1e 5c 3c f5 c1 b1 3d 9d 4f b2 3d 61 bf 79 3c
       0.013435024 0.086795725 0.08706591 0.015243382
000020 3f 9f 2e 3e 60 00 ad 3c 5c 19 54 3d 1c 7b 3d 3d
       0.17052935 0.021118343 0.051781997 0.046259984
000030 26 31 a4 3c 8b 08 47 3d 3a 84 a6 3c b6 52 b5 3c
       0.020042967 0.04859213 0.020326722 0.022134166
000040 0f 0a 85 3d f6 0d 21 3e a8 b3 20 3d a8 35 2f 3d
       0.06496059 0.15727982 0.039233834 0.04277578
000050 0d 3a 31 3d 61 79 53 3d b3 0a 1f 3d bd 64 9d 3d
       0.043268252 0.051629428 0.038828563 0.0768523
000060 61 9d 82 3d 89 e3 19 3d 33 5e f4 3d d4 62 c5 3c
       0.06377674 0.03757051 0.119320296 0.024094976
000070 f4 a6 61 3d 9d 9d 96 3c f6 43 78 3d 22 c5 ef 3d
       0.05509086 0.018385703 0.060611688 0.11707522

encoder.3.weight f4 [64, 32, 3, 3]
000000 6f c1 68 bd fd d5 0a bd 89 c2 46 3c c1 49 f3 3c
       -0.056825098 -0.03389548 0.012131342 0.029698255
000010 9f 46 de 3c ca 41 91 bc 06 b7 41 bd db 6b 9e 3c
       0.027133284 -0.017731566 -0.047293685 0.019338539
000020 7f d7 b9 bc 6e 6e a8 bd a1 5c fe bc 38 0a 87 bd
       -0.022685764 -0.08224188 -0.031050028 -0.06593746
000030 32 c2 20 3c dd af 3c bd 30 53 47 3d 75 67 2e 3d
       0.009811925 -0.046066154 0.04866332 0.042579133
000040 0b af 81 bd 9a be 40 bd 74 99 9e bc dc 96 ef bc
       -0.06332215 -0.04705677 -0.019360282 -0.02924674
000050 b6 e4 9b bc 84 a2 49 bd 54 5d 90 3c 06 45 e6 3c
       -0.019029956 -0.049227253 0.017622627 0.028109085
000060 c5 f8 a8 3c f8 14 82 bd a7 f4 d0 3c 8d 34 28 3d
       0.020626435 -0.06351656 0.025507284 0.04106574
000070 39 00 21 bc b7 72 12 bc ff cc 2a bd 63 b4 91 bd
       -0.009826713 -0.008938483 -0.041699406 -0.07114484
000080 eb 85 d6 3c d9 38 2a 3c c2 4a 31 bc 70 d8 f4 3c
       0.026186904 0.01038953 -0.010821046 0.029888362
000090 1e 25 4b 3b ad 35 52 3c 00 b3 3d 3d 5d 05 33 3d
       0.0030997465 0.01283018 0.046313286 0.043706287
0000a0 3d 2f 36 3d 62 9e c7 bb 32 b9 0f 3b cf 83 06 bd
       0.044478644 -0.0060918787 0.0021930453 -0.032840546
0000b0 76 c8 1a bc 9c 22 7f bd 59 12 16 3b b4 2a ae bc
       -0.009447208 -0.062288865 0.002289912 -0.021260597
0000c0 aa 6a e4 bc 83 f8 9a 3b c5 8b b3 bc f2 65 19 3c
       -0.027882893 0.004729332 -0.021917233 0.009362685
0000d0 c0 96 07 3c 5e 1f 07 bc ff 1d 8b bd 2e 48 4a bd
       0.008275688 -0.008247225 -0.06792831 -0.049385242
0000e0 0d 61 82 bd 55 85 c3 3d 6f cc 2d 3d df fd 05 3c
       -0.06366167 0.095469154 0.04243129 0.008178203
0000f0 c5 0c 66 3c ce ea 19 bc 77 3b 3d bd 0e f9 99 3c
       0.01404113 -0.009394361 -0.04619929 0.018795516
000100 9f c7 88 3c 61 58 cf bb e7 88 a1 bc e1 4b 20 bc
       0.01669675 -0.0063276743 -0.0197186 -0.009783716
000110 28 89 74 bd 4c 8f ef bb ed bc 68 3c 3d 6f 3f bb
       -0.059701115 -0.0073107835 0.0142052 -0.002921059
000120 fc 31 03 3d e5 35 3c 3d 5e 7d c3 3c b2 32 30 bd
       0.03203009 0.045949835 0.02386349 -0.043017097
000130 26 2b 5c bd bc 0a fc bc 4d 33 fb bc 0c a6 8e 3b
       -0.053752087 -0.030766837 -0.03066411 0.0043532904
000140 9c 1e 4d bd fb ad 3b bd f3 02 73 3c bb 81 3c bd
       -0.05007802 -0.045820218 0.014832246 -0.046022158
000150 58 c3 33 3d af 98 4c 3d 8a 7e 30 bc 5c ab 01 bc
       0.043887466 0.049950298 -0.010772357 -0.00791439
000160 55 f6 b6 3b b7 f7 31 bb 8d bc 61 3b dd 78 20 3d
       0.0055835643 -0.0027155706 0.003444466 0.039177764
000170 16 c1 fa 3a ef 77 2a bd 28 fc 90 bd cb 57 05 bd
       0.001913103 -0.041618284 -0.07079345 -0.03255443
000180 b0 e2 97 bc 52 64 0f 3b 37 67 ba 3c df 77 0b 3b
       -0.01854071 0.0021879864 0.022754295 0.0021281166
000190 29 94 65 3d 59 2e 99 3c 6b 26 22 bc 17 3b 6f 3c
       0.0560495 0.018698858 -0.009896855 0.01460149
0001a0 1c 01 94 3b 1d c2 b1 3c 61 c2 1d bd 41 08 b7 bc
       0.004516734 0.021699006 -0.038515452 -0.022342803
0001b0 12 4c 94 bd 7d f9 78 bd 92 71 c7 3b 0c 23 d6 3c
       -0.07241072 -0.060784806 0.0060865367 0.026139759
0001c0 29 41 b4 3b 32 4e 8c 3b 17 ba d8 bc cd 8a bb 3a
       0.0055009318 0.0042817825 -0.026455922 0.0014308334
0001d0 b7 cb 19 bd 80 08 d8 bc 63 da 3f bd 7c 5f b1 3a
       -0.037547793 -0.02637124 -0.04683913 0.0013532485
0001e0 9b 14 b5 bc 12 df c9 bc 85 c6 8b ba 37 8b 1e 3d
       -0.022104552 -0.024642501 -0.0010664022 0.038706984
0001f0 e9 99 37 bd 9a a7 1c 3d 20 b1 80 bd c7 57 d5 bd
       -0.044824515 0.038245775 -0.06283784 -0.10417133
000200 5d db fe bb 81 7c 61 3d ed bd 2a 3d 58 fc 54 3c
       -0.007777615 0.055050377 0.041685034 0.012999617
000210 f4 38 39 3c c5 3e 93 bb 10 be 50 3c 31 26 21 bd
       0.011305083 -0.0044935667 0.012740627 -0.039343063
000220 3e 0c 5c bd 2d a4 a9 3c e1 f3 a2 3d 35 d4 a5 3c
       -0.053722613 0.020708168 0.079566725 0.02024279
000230 bc 09 3d 3d 53 a2 39 bc aa 33 b4 bc f5 28 32 3c
       0.04615186 -0.011330205 -0.021997292 0.010874023
000240 b8 63 af bd 1e 2d 44 bc 0d 8f 82 bd 59 83 23 3d
       -0.08563942 -0.011973647 -0.06374941 0.039920185
000250 64 fc ad bb c8 62 8b 3c 17 44 fc 3c fb 20 43 3c
       -0.0053096283 0.017014876 0.030794187 0.011909719
000260 72 24 c7 3c 5a 4a 01 3d 3a ba 5e 3d 9a be cc 3c
       0.02430937 0.031565048 0.05437682 0.02499323
000270 67 de 2d bd e7 80 73 3b 68 bc 28 3d 31 7e 83 bc
       -0.042448428 0.003715569 0.041195303 -0.016051384
000280 5a ed 8a bd a0 1a f5 bb 83 fb e9 3c 95 2b 20 3d
       -0.067835525 -0.0074799806 0.028562313 0.039104063
000290 9d 50 7f 3b 92 5e cd bc f3 f7 78 3d 12 95 cf 3c
       0.0038957961 -0.025069509 0.060783338 0.025339637
0002a0 73 f2 68 3c 5c bd ad 3c e2 2a a0 3c 5a 50 cb bc
       0.014217961 0.021208458 0.019551698 -0.024818588
0002b0 73 b6 f0 bc 93 7e 43 3d 04 e3 70 bd 88 34 2a bc
       -0.029383874 0.047728132 -0.05881025 -0.010388501
0002c0 80 39 02 3d dd 85 53 3c aa 62 65 bc b4 ae a3 bb
       0.031793118 0.012910333 -0.014000574 -0.0049951915
0002d0 a8 ed 84 bd e1 95 03 be 35 4a 88 bd 09 b3 43 3d
       -0.06490642 -0.12850143 -0.06654779 0.047778163
0002e0 35 dd 02 bc 17 8e 17 3d b3 e8 36 3d 87 fb 0f bc
       -0.00798731 0.03700074 0.044655513 -0.008787996
0002f0 d6 4e d0 3c ae e3 0b 3d 90 1a c6 bc 01 e3 93 bc
       0.025428217 0.03415268 -0.024182588 -0.01805258
000300 9e ba 13 3d 58 a7 56 3a 88 3e 12 3c cd b3 0b 3c
       0.036066644 0.00081883883 0.008926041 0.008526755
000310 32 75 de bc e7 52 1a 3d aa 18 8d bb 46 78 f5 3c
       -0.027155492 0.037676718 -0.0043059187 0.029964577
000320 6c 3c 2c 3d cb 7c 1c bd 60 90 09 bd 9c ee 9d bc
       0.04204981 -0.03820495 -0.033584952 -0.019278817
000330 ad d5 96 bc ec 84 b7 3c 6a 6d 35 3d 33 21 a3 3c
       -0.018412435 0.02240225 0.0442938 0.019913292
000340 98 1a 03 bb 3e 15 d1 bb bf 1e ad bc 5e b5 35 bd
       -0.0020004865 -0.006380706 -0.021132825 -0.04436242
000350 19 07 7b 3d da 59 a5 3c 1c 5a d2 3c b0 06 52 bc
       0.061286066 0.020184446 0.025677733 -0.012818977
000360 d6 9b 9e bb 18 29 b4 bc f8 12 52 3d e3 db f9 3b
       -0.0048403544 -0.021992251 0.05128762 0.0076250895
000370 0a cf 97 3b 33 92 ee 3c 5a 4f 81 3c ab 3d db bc
       0.0046328353 0.029122448 0.015784908 -0.026762804
000380 0a 63 5a 3c 62 eb b7 3c 39 d5 70 3d 36 9a 86 bc
       0.013329277 0.022451106 0.058797095 -0.016430955
000390 85 85 a4 bb 2b f9 7d bb 54 95 a2 39 b8 35 5b bd
       -0.0050207996 -0.0038753252 0.00031010306 -0.053518027
0003a0 c1 7a 3a bc ed 0d f5 bb a6 b0 25 3d 1d 1b b5 ba
       -0.011381806 -0.0074784667 0.04045167 -0.0013817284
0003b0 d8 62 01 3d 1f 49 86 3c 57 c4 3a bd 04 1a 22 3d
       0.031588405 0.016392289 -0.0455974 0.03957559
0003c0 db 1c a2 bb af 5a 10 3c b7 4a ab 3c c9 5f 74 bd
       -0.0049472875 0.008810683 0.02090965 -0.05966166
0003d0 e2 18 16 bd 0c 73 a5 bc e4 cf 27 3d eb 77 4c 3d
       -0.036644824 -0.02019646 0.040969744 0.04991905
0003e0 4f c0 2f 3a d4 a2 38 bc f1 a2 1c bd 21 6c d8 bc
       0.00067043764 -0.01126929 -0.03824133 -0.026418747
0003f0 e6 5b 64 3d 0e 0d 1b 3d 0f ae bb bc ab ad 8e bd
       0.055751704 0.037854247 -0.022910146 -0.06966718

encoder.3.bias f4 [64]
000000 8f 14 ab 3c 7e 95 10 3c 47 89 49 bd 15 8e 55 bd
       0.020883827 0.008824704 -0.049203184 -0.052137453
000010 ea dc 41 bd a8 a4 8b bb 0a f0 0b ba 79 73 cb bc
       -0.04732982 -0.004261572 -0.0005338198 -0.024835335
000020 b5 2e 8c bc 04 fb de 3b 95 85 aa bb 42 5f ac bc
       -0.017112115 0.0068048257 -0.0052039125 -0.021041516
000030 01 62 ec bc c6 f3 cc bc b8 1f 42 bd fa 20 82 bc
       -0.028855326 -0.025018584 -0.04739353 -0.015884865
000040 54 8d 01 bd 1a 70 bc 3c 0a 5c a7 bb f7 89 50 3d
       -0.03162892 0.023002673 -0.0051074075 0.050912824
000050 73 0c 27 3d 53 85 00 3c a5 e6 1b 3d 7e 87 30 bd
       0.040783357 0.007844287 0.038061757 -0.043097965
000060 80 d3 ce 3c 40 16 ea 3c 01 7d 3a 3c cb 42 04 3b
       0.025247335 0.028575063 0.011382342 0.0020181413
000070 93 4a 2b ba 5a 12 4d 3c 2a f7 35 3d a8 1e c2 3c
       -0.0006534245 0.012516582 0.044425167 0.023696259
000080 c6 a7 30 bd 2e 5f 5b bc 5e f3 30 3d 94 a4 b7 bc
       -0.04312875 -0.013389392 0.043200843 -0.022417344
000090 dc c8 3b bd e3 de 1c bd d4 70 4f 3d ca 2d 19 bd
       -0.04584585 -0.0382985 0.05064471 -0.037397183
0000a0 3f 82 10 3d da dc 6c 3c 2a b8 5b bc b2 3c 52 bb
       0.035280462 0.014456952 -0.013410607 -0.0032079634
0000b0 17 a7 f4 3b 01 e7 50 3d 6e 6b 2c bd db a7 9f 3c
       0.0074662077 0.051001552 -0.04209464 0.01948922
0000c0 48 7b 8e bc 09 42 64 bc 45 c1 dd bc 43 78 e5 3b
       -0.01739277 -0.01393176 -0.027069697 0.0070028617
0000d0 8f 7f 60 bd d2 6a 93 bc 14 63 fb bb 6d 4f f2 3c
       -0.05480915 -0.017995272 -0.007671723 0.029578889
0000e0 51 93 e2 3b 66 39 48 bd 5d 86 07 bd 8e f4 3f 3d
       0.006914534 -0.048882864 -0.033087123 0.046864085
0000f0 95 a6 55 bd f7 3a a4 bb 77 92 28 3d 0e ad eb bc
       -0.052160818 -0.005011912 0.041155305 -0.028769042

encoder.4.weight f4 [64]
000000 be 4c 7d 3f 30 cf 7a 3f f9 e8 7f 3f 4a 48 7c 3f
       0.98945224 0.97972393 0.99964863 0.98547804
000010 67 e7 8d 3f c2 90 7f 3f 7b b7 82 3f 0d 95 79 3f
       1.1086243 0.9983026 1.0212244 0.9749306
000020 47 34 8e 3f 70 27 70 3f 5c b3 79 3f 17 85 7f 3f
       1.1109704 0.93810177 0.97539306 0.99812454
000030 b1 2f 7c 3f 07 0f 83 3f 8a 2e 71 3f 61 3f 78 3f
       0.9851027 1.0238961 0.9421164 0.9697171
000040 f7 fb 7a 3f f7 5d 84 3f c1 bc 68 3f ad b4 7b 3f
       0.9804072 1.0341176 0.90913016 0.98322564
000050 cc 1f 81 3f 8b 78 78 3f f2 78 77 3f 4e 7b 7b 3f
       1.0087829 0.97058934 0.9666892 0.98235023
000060 97 32 84 3f 9e a7 6f 3f a4 09 84 3f 7f 2a 82 3f
       1.0327939 0.9361514 1.0315442 1.0169219
000070 b0 5b 81 3f 76 3a 7d 3f 30 27 82 3f 8c 37 80 3f
       1.0106106 0.9891733 1.0168209 1.0016952
000080 f2 46 82 3f 9a b3 71 3f 4a d1 86 3f 3b c1 7b 3f
       1.0177901 0.94414675 1.053262 0.9834172
000090 89 90 82 3f 22 16 83 3f fe 9e 7b 3f 05 1e 83 3f
       1.0200359 1.0241129 0.9828948 1.0243536
0000a0 7a 01 7b 3f 6b 84 84 3f 77 43 7b 3f a7 3e 7d 3f
       0.9804913 1.0352911 0.9814982 0.98923725
0000b0 19 ce 7d 3f 89 9e 77 3f b1 00 81 3f 6c c0 7b 3f
       0.99142605 0.9672628 1.0078336 0.9834049
0000c0 63 d5 79 3f 99 88 80 3f 16 b6 87 3f b4 9b 82 3f
       0.9759123 1.0041686 1.0602443 1.0203767
0000d0 0e 25 8a 3f 93 23 75 3f 15 ca 76 3f 7d 09 81 3f
       1.0792558 0.95757407 0.964021 1.008102
0000e0 09 db 77 3f 65 14 7c 3f d1 b8 84 3f 34 10 7a 3f
       0.96818596 0.9846862 1.0368901 0.97680974
0000f0 d5 b6 7a 3f e5 cd 91 3f 52 0c 87 3f f8 9e 8d 3f
       0.9793523 1.1390959 1.0550635 1.1064138

encoder.4.bias f4 [64]
000000 57 e5 79 3d 7a db 13 bc 76 44 94 bc d4 5a 06 bd
       0.06100973 -0.009024495 -0.018099051 -0.032801464
000010 b3 01 b9 3d 0b fc 91 3c cd 24 a1 bd 51 da ee 3c
       0.09033527 0.017820379 -0.07868347 0.029156836
000020 43 56 90 3d ce 16 9b 3d 10 66 35 3d 5c 5f 10 bd
       0.07047703 0.07572709 0.044286788 -0.03524719
000030 34 1f f4 3b 70 20 fb bc ad c9 2d 3d 2f dc a8 bd
       0.0074500088 -0.030655116 0.04242866 -0.08245122
000040 30 09 a5 bd 6a 0e 4d bd d6 8d 31 3d df 45 ef ba
       -0.08058393 -0.050062574 0.043348156 -0.0018255076
000050 fe f2 3d bd fa e4 10 3c 33 db a2 3c 65 8d d8 bc
       -0.046374314 0.008843655 0.019879913 -0.02643461
000060 c1 5a a0 3d 0f b2 b7 3d 88 2e d6 bc db ae ff bd
       0.0782981 0.08969509 -0.026145235 -0.12484523
000070 09 12 19 3d 61 0a ca bc 49 bf 27 3d d3 b8 50 3c
       0.037370715 -0.024663152 0.040953908 0.012739378
000080 fc 62 2a bd e3 da 3e 3d 6d 0e ab 3d 58 5e 8a bd
       -0.041598305 0.046595465 0.08352361 -0.06756276
000090 09 2d d8 3d df 83 5e 3d 7e 25 9e 3d f7 2c 9b bd
       0.10555465 0.05432498 0.07721995 -0.07576936
0000a0 a3 35 5e bd 0a 28 42 3d 65 c9 38 bd d8 c8 61 bd
       -0.05425037 0.047401465 -0.04511394 -0.05512318
0000b0 20 12 a3 bd 0a c6 15 bd 46 64 6f 3c 8a e8 6b 3d
       -0.079624414 -0.036565818 0.014611309 0.057594813
0000c0 e6 af 86 bc b3 87 4b bd 80 7b de 3d c7 15 a7 3b
       -0.016441297 -0.04968996 0.108633995 0.0050990316
0000d0 5e 9d b2 3d 27 7c cb bc 68 e8 a9 bd 09 65 87 3c
       0.08721422 -0.024839474 -0.08296281 0.01652767
0000e0 37 d5 70 bd 3a 74 00 3d 25 5d 43 3c 7a 85 47 3b
       -0.058797088 0.031360842 0.011924063 0.0030444548
0000f0 d8 07 8e 3b 8c 3b b6 3d ed 26 53 3d a4 8c a4 3d
       0.004334431 0.088980764 0.051550794 0.080346376

encoder.4.running_mean f4 [64]
000000 53 b7 e8 be 68 46 48 3f 7c 0c 66 3f 25 f5 a6 3e
       -0.45452365 0.7823243 0.898628 0.32608905
000010 9a d2 1b bf f1 9f 8e 3e 2c fe fd 3d 32 46 35 3e
       -0.6086823 0.278564 0.12401995 0.17702559
000020 cd cd 51 bf 98 40 32 3f 42 e3 38 bf 14 a0 0d 3f
       -0.8195465 0.6962981 -0.7222177 0.55322385
000030 57 6e a3 3e fe fe 1d 3f d6 e6 1d 3f f3 9c 99 3d
       0.3192012 0.6171721 0.6168035 0.07500639
000040 a5 6f c3 3e cd 5f 2a 3f ce 85 6a bb 89 54 8c 3e
       0.38171116 0.6655243 -0.003578532 0.27408245
000050 a4 af 45 3f 8a ed ae be 0a ae f6 3e 13 44 ed 3d
       0.7722113 -0.34165603 0.48179656 0.1158525
000060 c6 8a 0e bf d9 4c 37 3f 03 4f 8f 3f c3 75 d3 3e
       -0.556805 0.71601635 1.1195987 0.41300783
000070 1b b6 01 bf ad 9f c4 3c 46 ba bc be 7f c0 cc 3d
       -0.50668496 0.02400192 -0.36860865 0.09997653
000080 04 06 19 3f 7d 0e be 3e c5 8f d5 3d 3f ee 81 3e
       0.59774804 0.3712043 0.104278125 0.2537708
000090 86 45 16 be ac 61 2a bf 61 47 c9 3e da e0 8e 3e
       -0.14674959 -0.66555285 0.3931227 0.27905923
0000a0 f9 c5 ab 3e 43 84 3e bf 78 01 24 3e e9 1b 22 3f
       0.3354948 -0.74420565 0.16016185 0.6332384
0000b0 f1 3b 63 3f 7d e9 74 3d b8 d9 a9 3e 68 b7 f5 be
       0.8876334 0.059792984 0.3317392 -0.4799149
0000c0 5d c0 e9 bb 84 81 44 3e f2 4c 63 bf c2 0a 50 3f
       -0.007133527 0.19190031 -0.88789284 0.81266415
0000d0 37 cd 31 bf ed c0 40 3e 59 4d d5 3e 36 ab c4 3d
       -0.6945376 0.18823595 0.41660574 0.096029684
0000e0 b9 a1 b1 bd 57 d6 dc 3d b7 47 17 bf 37 cc 6a 3f
       -0.08673424 0.107830696 -0.59093803 0.9171786
0000f0 f7 28 74 be 13 b3 5e bf a8 27 65 bf 48 b7 b5 bf
       -0.23843752 -0.86991996 -0.89513636 -1.4196558

encoder.4.running_var f4 [64]
000000 a1 89 81 3e 1c 2b 77 3f 2f e0 84 3f e8 0a 04 3f
       0.25300315 0.96550155 1.0380915 0.5157914
000010 48 9d 09 3f 17 e6 f3 3e 85 69 6b 3e 1f 9b 13 3f
       0.5375562 0.47636482 0.22989471 0.5765857
000020 ff 8e 20 3f fa 62 1c 3e fd 5b eb 3e 7c 2a 2b 3f
       0.62718195 0.15272132 0.4596862 0.668617
000030 ff 34 9d 3e a5 1f 40 3f e5 b5 a7 3e e3 1c 29 3f
       0.30704495 0.75048286 0.32755962 0.660597
000040 6b 50 ec 3e b4 4d 42 3f 1c 9b 4f 3e ad 19 4d 3e
       0.46155104 0.75899816 0.20274013 0.20029326
000050 5a c1 7a 3f 49 a1 3d 3e e1 92 ce 3d f8 41 92 3e
       0.9795128 0.18518557 0.10086609 0.28565955
000060 47 31 cb 3e f5 80 41 3e ae eb 9d 3f 3e 43 1e 3f
       0.39686033 0.1889685 1.2337549 0.61821353
000070 93 a0 7c 3f b7 f1 68 3e dc c3 49 3f e2 92 b2 3e
       0.98682517 0.22748457 0.7881448 0.34877688
000080 5b a1 7d 3f 89 6d 27 3e c6 20 81 3e 99 08 0c 3f
       0.99074334 0.16350378 0.25220317 0.5470062
000090 82 63 39 3f e9 8a be 3e e1 29 ee 3d 67 05 d9 3e
       0.7241746 0.37215355 0.116290815 0.42386934
0000a0 17 69 02 3f 2d bb 56 3f 11 d1 e9 3e 39 9a 2d 3f
       0.50941604 0.8387936 0.45667318 0.6781345
0000b0 4f e1 3b 3f 6d 97 b8 3e 9b 53 18 3f be 75 da 3e
       0.7339067 0.3605303 0.5950257 0.42667955
0000c0 4a bd f1 3e c5 d1 dc 3e d2 7e bd 3e 9d 5e a7 3f
       0.4721473 0.4312879 0.3701082 1.3075749
0000d0 5f bc 50 3f 5f e5 e8 3e b8 e6 1c 3f bc 36 b5 3e
       0.8153743 0.45487496 0.6128955 0.35393322
0000e0 2b eb 54 3e 15 1a 1f 3e 45 04 67 3e 28 0f a0 3f
       0.20792834 0.15537293 0.22560222 1.2504625
0000f0 22 6e dd 3e a5 2d 09 3f 4b 1f 21 3f 8c c4 ba 3e
       0.43248087 0.53585273 0.62938374 0.36478078

decoder.0.weight f4 [64, 32, 3, 3]
000000 c4 60 2b 3d 08 5d 5a 3d dc 48 29 bc 8d 45 fa 3b
       0.04184033 0.053311378 -0.010332312 0.0076376856
000010 c0 c4 bd bc 48 bb 98 3c 35 b0 3c bb f2 9f c9 bc
       -0.023165107 0.01864399 -0.002879155 -0.0246124
000020 68 25 cd 3c de fa 21 bd 9a 95 71 3c 4d 7e 50 3c
       0.02504225 -0.039545886 0.01474514 0.012725425
000030 24 28 9c bc c0 46 61 bd d2 9a fb bc d7 ce cf 3c
       -0.01906211 -0.054999113 -0.030713473 0.025367184
000040 47 12 e6 bb 32 c9 89 3c 6b b4 78 bd 29 90 16 bd
       -0.007021222 0.01681957 -0.060718935 -0.036758576
000050 2c b4 68 3c ad e5 d9 bc 08 26 82 bc 08 43 87 bc
       0.014203113 -0.026598776 -0.015887275 -0.016511455
000060 55 5a a7 b9 ce b5 0b 3c 16 8b 8c 3c 4b ee 37 3d
       -0.00031920025 0.008527232 0.017156165 0.04490499
000070 0b 30 3c 3d 33 39 15 bc 00 f3 78 3d 79 9b 41 3c
       0.045944255 -0.009107876 0.060778618 0.011816853
000080 16 c5 f7 3a cd d7 fa bc 46 da a2 3c 0b 1c eb bc
       0.0018903341 -0.03062048 0.019879472 -0.028699895
000090 80 41 91 bd b3 98 92 bb dd 1b 4c bd 63 a9 3b bd
       -0.07092571 -0.0044737696 -0.04983126 -0.045815837
0000a0 8a a7 26 3d d1 fd 48 bd 23 d8 ec bb ab ee 03 3a
       0.04068712 -0.049070183 -0.007227914 0.0005032818
0000b0 d7 82 e4 bc 62 83 b7 bd ac 59 97 bc 34 0d 72 bc
       -0.02789442 -0.08960606 -0.018475376 -0.014773656
0000c0 1c d1 2b bd ce 80 bb 3c 43 7a 4d bc 33 5f 2a bd
       -0.04194747 0.022888567 -0.0125413565 -0.041594695
0000d0 02 e2 41 3d cf 2f 6b bb bd e9 25 3d da 38 81 3d
       0.04733468 -0.003588665 0.040506113 0.06309672
0000e0 5f f7 cb 3c 4b 16 a0 ba 80 d7 74 bd 41 79 7d bc
       0.02489823 -0.0012213675 -0.05977583 -0.015470804
0000f0 b6 45 a7 bc 75 27 0d 3b 4d d0 5a bc c3 9c 03 bd
       -0.020418983 0.002153841 -0.013355327 -0.03213192
000100 27 d3 04 3d 93 da 9f 3b 56 17 7d bc 6f d7 f4 3c
       0.032427933 0.004878351 -0.015447458 0.029887883
000110 a4 14 da 3c c9 dc 3e bd 5d f3 73 3c 80 1a dc ba
       0.02662117 -0.046597276 0.014889565 -0.0016792566
000120 95 48 e1 bc f8 b0 26 bd 19 26 d5 3b 34 f1 89 3d
       -0.02750043 -0.040696114 0.0065047857 0.06735459
000130 21 70 97 3c 6e 77 1d 3d f5 02 0d bd d8 2c cd 3c
       0.018486084 0.038443975 -0.03442665 0.025045797
000140 2e 91 07 bc e6 81 ca bc a0 be 0d 3b 0c 9a 8f bd
       -0.00827436 -0.024720144 0.0021628514 -0.07011804
000150 98 c9 91 bc 51 39 97 3a 3b 42 d4 bb 79 b3 3d bd
       -0.017796323 0.0011537467 -0.006477622 -0.046313737
000160 4f 8e 24 bd 74 8d 2e 3b 1c 55 e6 ba e6 3a f0 3b
       -0.04017478 0.0026634606 -0.0017572972 0.00733124
000170 47 64 73 bd bc 57 08 3d 2f 87 e5 3c d4 d0 88 bc
       -0.059421804 0.033286795 0.028018562 -0.01670114
000180 94 75 0c bd 67 db 8d 3d da 08 6e 3d 2d d6 fa bc
       -0.03429182 0.06926613 0.05811391 -0.030619705
000190 d0 98 2a 3d 73 b7 ec bb 2c 6e 96 bc 64 e1 1b bd
       0.04164964 -0.0072240173 -0.01836308 -0.038056746
0001a0 e2 2e da bb 57 12 1b bd 33 9a 57 3d 09 83 1d 3d
       -0.006658421 -0.037859287 0.05263729 0.038455043
0001b0 0e 2e 48 bd 62 c7 66 bd d8 a2 81 bc 14 75 6b 3c
       -0.048872046 -0.05634249 -0.01582472 0.014371175
0001c0 48 b6 a8 bc 02 37 e9 3c ee 3d dd 3b a4 f9 4a bd
       -0.020594731 0.028468613 0.0067517674 -0.049554482
0001d0 2a 3f d2 3b 3f 34 30 3c 3a 9b 04 3b ec 0f be bc
       0.006416221 0.010754644 0.0020234124 -0.023200952
0001e0 23 fa eb 3b a4 e0 04 3d a1 ba 44 3d 59 65 19 3b
       0.0072014495 0.032440796 0.048029546 0.0023406355
0001f0 84 6b bb bc 11 1a 12 bb 15 36 53 bc 25 d9 a7 3c
       -0.022878416 -0.0022293369 -0.012891312 0.020489285
000200 46 2a 79 bd 64 91 18 bd 84 32 dc 3b a3 ef f9 bb
       -0.06083133 -0.03724803 0.006719889 -0.007627444
000210 38 bf 0f bd b5 a7 49 3c 0e b0 9d bc 8e ee f1 ba
       -0.03509447 0.012308051 -0.019248988 -0.0018457936
000220 60 d5 3e bd e9 4a 80 3d 5d ac 84 bc a7 32 75 bd
       -0.04659021 0.06264288 -0.01619547 -0.05986276
000230 06 2e e3 ba 4d 66 d9 bb 32 ed 67 bc 23 b2 59 3c
       -0.0017332442 -0.0066345097 -0.014155673 0.0132871
000240 0f 90 fc 3c 4a e4 9e bc ed 5a 0c bd a8 84 45 bc
       0.030830411 -0.019395966 -0.0342664 -0.0120555535
000250 61 f7 12 bd 25 80 f1 bd 75 ea 3e bc e6 3c a3 bb
       -0.03588045 -0.1179202 -0.011652579 -0.004981625
000260 39 a5 30 3c 4c 9c d8 bc 5f a3 56 bd 00 db 89 bd
       0.01078158 -0.026441716 -0.052401897 -0.06731224
000270 82 cf 32 bd fa 0c 0d 3d b0 3f 5a 3c be 49 23 ba
       -0.043654926 0.034436204 0.013320848 -0.0006228945
000280 d8 b9 b2 3c 26 4f 37 3d 72 fc 09 3d 71 e3 33 3c
       0.021817133 0.044753216 0.033688016 0.010979519
000290 06 54 2a 3d 3a e9 c8 37 66 b6 7f bd ab 51 82 3b
       0.041584037 2.3950462e-05 -0.062429808 0.0039770207
0002a0 58 43 10 3c f2 5d 31 bd 0e 02 4c bc d7 57 07 bd
       0.0088051185 -0.043302484 -0.012451662 -0.033042755
0002b0 18 b6 a6 3c 22 0e 13 bd e3 e5 0b bd 82 bf 13 bd
       0.020350501 -0.03590215 -0.034154784 -0.036071308
0002c0 97 86 96 bb 84 e0 cd bc 8a 31 81 3d 3b c4 6d bd
       -0.004593681 -0.025131471 0.06308277 -0.058048468
0002d0 b3 dd f0 3b ad c7 be 3c f6 a3 94 bc d5 ad 45 bc
       0.0073506474 0.023288572 -0.018144589 -0.012065371
0002e0 87 7c ba 3b e4 be 9a 3d 10 7c 6e bb d6 5e 37 bd
       0.0056911143 0.07555941 -0.0036389865 -0.044768177
0002f0 46 da 87 3c b0 ce e8 bc 2f 91 e5 bb 63 04 3d bd
       0.016583573 -0.028418869 -0.0070058326 -0.04614676
000300 84 fb 5e bd 2f 42 97 3c 19 fd 3c bd 1d f3 8f bc
       -0.054439083 0.018464176 -0.04613981 -0.01757198
000310 78 0c 92 3c 07 aa 9e bd 9c 09 f2 bb 0d 5a 7f bc
       0.017828211 -0.07747274 -0.0073863994 -0.015585435
000320 c7 8a ea ba be 31 69 bd 83 d9 2a 3b 20 42 88 3d
       -0.0017894142 -0.056932203 0.0026069588 0.06653237
000330 63 58 19 3b e3 64 a8 bb 91 4c c2 3c 5f 2f c3 3c
       0.002339863 -0.0051389798 0.02371815 0.0238263
000340 22 4e ab 3c 6c 42 50 bc 0e 9f 63 3d 9d 51 02 3d
       0.02091128 -0.012711149 0.05557161 0.031816114
000350 91 4f 7f bd 81 ae ea 3c 30 c9 7f 3d ec 90 9a 3c
       -0.06233174 0.028647663 0.062447727 0.018867932
000360 75 7d 1f bd f7 0e a2 bc 09 73 d8 bb c4 67 0a bb
       -0.038938005 -0.019782526 -0.00660551 -0.0021118978
000370 25 5a 72 bd 7a 8a 41 3b e5 75 d9 bc 6e 92 33 bd
       -0.059168 0.0029532001 -0.026545474 -0.043840818
000380 da 2c f2 bb d0 b5 99 3c 40 bf 8c bd 58 96 34 bd
       -0.0073906006 0.018763453 -0.068724155 -0.04408869
000390 f9 9a 0a 3d 8b dd 33 3d 81 6a 24 bd 97 5a 0d bc
       0.0338392 0.04391245 -0.040140633 -0.008627555
0003a0 8d 78 1c bd 57 86 66 bc 0a 3d 0b 3d e8 e7 d1 bc
       -0.038200904 -0.014070115 0.03399376 -0.025623277
0003b0 91 15 a8 bc aa 5c b8 3c c6 18 98 bc 67 08 71 bd
       -0.020518096 0.022505123 -0.0185665 -0.058845904
0003c0 4d b7 45 3d 65 52 ae 39 68 36 05 3d 12 4e 81 bd
       0.048270512 0.00033249255 0.03252259 -0.06313719
0003d0 6b 1f a8 bd d5 d4 94 bc 34 8d 6b 3b 66 8f 0f bd
       -0.082091175 -0.018167892 0.0035942318 -0.035048865
0003e0 fd 80 be 3a d1 d1 50 3d 97 bc 91 3c 89 61 4b 3c
       0.0014534291 0.050981347 0.017790122 0.012413391
0003f0 25 68 42 bc a9 fc 4c bc 71 f9 1a 3d b4 b5 e8 bc
       -0.01186565 -0.012511411 0.037835542 -0.028406955

decoder.0.bias f4 [32]
000000 ce b9 07 3a ef 65 00 3d 58 91 47 bc d0 74 bf bc
       0.00051775284 0.03134721 -0.012180649 -0.02337113
000010 ed 91 32 3d 8d 1f c0 bc 44 1c 27 bd 6b fa aa 3c
       0.043596197 -0.023452545 -0.04079844 0.020871362
000020 fe bf 1f 3d 66 2d 16 3d ee 4e 9a 3c dd 61 19 3d
       0.039001457 0.03666439 0.018836465 0.037446845
000030 90 63 cb 3c 02 98 55 3b 4c 3b 68 bd 4c a2 ed 3c
       0.024827749 0.0032591824 -0.056697175 0.029008053
000040 9a 2d 22 3b 56 ee 33 bd f2 14 b8 bc 63 c3 0c bd
       0.002474642 -0.043928467 -0.022470925 -0.034366023
000050 d7 62 43 3d cc cc ae bc 4a 26 68 3d 96 93 e0 bc
       0.047701683 -0.02133789 0.05667714 -0.027414124
000060 54 ae 45 3d 48 de fa 3b 84 8c c2 3c c8 77 56 bd
       0.048261955 0.0076558925 0.023748644 -0.052360326
000070 be 47 4e 3d fb 86 49 bc d1 2e cb 3c 58 d3 65 bb
       0.050361387 -0.012300248 0.024802597 -0.0035068598

decoder.1.weight f4 [32]
000000 c7 1e ba 3f 4c 41 b5 3f a8 be ba 3f b8 63 ba 3f
       1.4540642 1.4160552 1.4589434 1.4561682
000010 75 cb b3 3f 87 a1 af 3f 1c 92 b9 3f 87 26 c0 3f
       1.4046465 1.3721169 1.4497714 1.5011758
000020 ec ff bf 3f 3c 5d b0 3f c3 10 b6 3f 54 c7 af 3f
       1.4999976 1.3778453 1.4223865 1.3732705
000030 61 b7 b7 3f e6 ca b6 3f 44 3e ae 3f d8 47 b1 3f
       1.4352838 1.428067 1.3612752 1.385005
000040 35 58 bc 3f 0d 35 ad 3f d2 dd ae 3f 08 23 ab 3f
       1.4714419 1.3531815 1.3661444 1.3370066
000050 88 b8 b3 3f 6e ae a9 3f 43 d8 a7 3f 4f 95 ac 3f
       1.404069 1.3256357 1.3112873 1.3483065
000060 a9 03 b5 3f eb 38 be 3f 56 66 bd 3f 70 6d bd 3f
       1.4141742 1.486112 1.4796855 1.4799023
000070 a8 a4 c2 3f ce 83 bb 3f e7 12 ab 3f a1 9c b3 3f
       1.5206499 1.4649599 1.3365144 1.4032174

decoder.1.bias f4 [32]
000000 8d 0f 3f 3e fd 52 dd 3e 86 3c d9 3e 23 50 e3 3e
       0.18658276 0.43227378 0.42428988 0.44397077
000010 4c 67 bd 3e 81 75 96 3e 88 11 d0 3e 3e ba df 3e
       0.36992872 0.29386523 0.40638375 0.4369678
000020 d2 75 dd 3e 52 ef 32 3e de 64 ab 3e 89 39 ad 3e
       0.43253952 0.17474106 0.33475393 0.33832958
000030 c5 6d 63 3e 67 e9 2b 3e 23 cc 20 3e 1c 24 fc 3d
       0.22209843 0.16788255 0.15702872 0.12311575
000040 e6 c5 f1 3e 96 d1 8e 3e 9b 8f 0f 3e 27 d5 86 3e
       0.47221297 0.27894276 0.14019625 0.26334497
000050 98 f3 aa 3e 98 ce 83 3e 23 b3 84 3e d3 67 8f 3e
       0.33388972 0.25743556 0.2591792 0.280089
000060 b3 96 6a 3e 76 20 f6 3e 2f 24 ac 3e 47 f3 e1 3e
       0.2290905 0.4807164 0.33621356 0.44130918
000070 6e ac f6 3e 6f bc c4 3e 52 6c 86 3e ea d6 9f 3e
       0.48178428 0.38425013 0.26254517 0.31218654

decoder.1.running_mean f4 [32]
000000 95 10 6a 3c d2 b4 a0 bd 03 a4 6f be 8e cb 4e be
       0.01428618 -0.07846989 -0.2340241 -0.20194837
000010 88 d1 49 3d 5b ab 60 be 99 71 bc bc 40 31 80 be
       0.04927209 -0.21940367 -0.023003386 -0.25037575
000020 cb 45 d3 bd 2a a0 99 3d 0c f8 01 be ee 79 4e bd
       -0.10316046 0.07501252 -0.12692279 -0.05040925
000030 d3 af 21 3d 8d e1 e7 bc ee ca c7 bd d0 94 8e bd
       0.03947432 -0.028305793 -0.09755503 -0.069619775
000040 66 48 0a be 6e 9b d4 be a5 a4 18 bd a3 38 c9 be
       -0.1350418 -0.41524833 -0.037266392 -0.39301023
000050 97 99 4d be 7e 7d b5 be 97 61 33 be 97 79 7e be
       -0.20078121 -0.35447305 -0.17517696 -0.2485107
000060 e1 d2 85 3d b9 a0 97 be a3 ad 94 bc 31 f2 e9 be
       0.065343626 -0.2961481 -0.018149203 -0.4569259
000070 e4 2b 08 be cd c4 a2 be 87 73 ad be 6e a1 9e be
       -0.13297993 -0.31790772 -0.33877203 -0.30982536

decoder.1.running_var f4 [32]
000000 f2 20 81 3d ec 33 4f 3d 1d cc 65 3d 06 a6 02 3e
       0.06305112 0.050586626 0.05610286 0.12758645
000010 6d 30 94 3d c7 42 c0 3d 91 b0 24 3e ed 79 61 3e
       0.07235799 0.09387737 0.1608298 0.22019167
000020 92 bd 51 3e 7d 15 cc 3d 00 7e 92 3d f4 4f 73 3e
       0.20482472 0.09965036 0.07152939 0.23760968
000030 28 5e bc 3d 72 62 a3 3d de 95 d7 3d e3 52 e2 3d
       0.091976464 0.07977761 0.10526632 0.11050966
000040 45 02 d8 3d 9a c9 2f 3e 9e c8 dd 3d 63 cb 1e 3e
       0.10547308 0.17166749 0.1082928 0.15507273
000050 88 3f 68 3e ed 9d 81 3e b7 24 80 3e 92 cd 5b 3e
       0.22680485 0.253158 0.2502801 0.21465138
000060 da de 29 3e 76 2f 38 3e c3 29 24 3d 55 0b 34 3e
       0.16588917 0.17986855 0.04007889 0.17582448
000070 e6 95 54 3e 7e 01 1b 3e b3 f8 04 3e 56 48 b7 3e
       0.20760307 0.15137288 0.12985496 0.35797375

decoder.3.weight f4 [32, 1, 3, 3]
000000 8f e0 87 be 56 9e c2 be 52 fe 3f be 56 63 c3 3e
       -0.26538512 -0.38011426 -0.18749359 0.38161725
000010 2f b5 6d 3e dd d8 39 be a8 89 fd 3e 9b 0f 33 3f
       0.23213647 -0.18149133 0.49519086 0.6994569
000020 97 c0 ef 3e 59 7e 7b 3e 10 84 0f bf ac 68 ad be
       0.46826622 0.24559917 -0.56060886 -0.3386892
000030 b9 19 31 be 3e 7b f7 be 33 a2 c1 3d 14 5f 97 3e
       -0.17294969 -0.48336214 0.09454765 0.29564726
000040 98 60 e9 3c e5 3e 32 3c 88 42 ec 3e 96 8b 1a 3f
       0.028488442 0.010879253 0.4614451 0.6036924
000050 34 96 21 be cf dd 48 3d 1b b6 75 bd eb 9d 28 bf
       -0.15779954 0.04903966 -0.059988122 -0.65865964
000060 52 25 fb bd d1 0b 8d be 4a 94 a3 be 58 13 78 bd
       -0.12262978 -0.27548078 -0.31949073 -0.060565323
000070 c8 e0 53 be 71 ba 44 3e c7 f2 e1 bd 8c c4 30 bf
       -0.20691216 0.19211747 -0.11032634 -0.69049907
000080 9e 14 fc bd f4 84 7b be 78 41 03 bf 57 47 35 3e
       -0.1230862 -0.24562436 -0.5127177 0.17702995
000090 39 52 b2 3d 21 3f c6 be 6c bf 8b be 9d 76 ce be
       0.08707089 -0.3872004 -0.2729448 -0.4032487
0000a0 5b 35 00 bf 94 9b 87 3e 41 83 00 bf e4 76 e4 bc
       -0.50081414 0.26485884 -0.5020028 -0.027888723
0000b0 79 56 43 bd e6 a5 dc bd fe 61 3e be 48 fa a6 be
       -0.04768989 -0.1077383 -0.18592069 -0.32612824
0000c0 f7 af 53 be 7d 17 fd bc 37 fc a4 be b2 37 f9 be
       -0.20672594 -0.03089499 -0.32223675 -0.48675305
0000d0 95 c3 db be 69 1b 13 3d 70 27 ed be 48 a8 df be
       -0.42922655 0.035914812 -0.4631915 -0.43683076
0000e0 1a ff a9 be 88 af 5c 3d c0 0c fe be a9 06 c7 be
       -0.3320244 0.053878337 -0.49619102 -0.3887227
0000f0 ae 32 fd 3d 02 ba 33 be f0 58 10 3e 87 6e d0 bd
       0.12363182 -0.17551425 0.14096427 -0.101773314
000100 38 fc 02 3c 5f e5 b0 be c5 67 c6 be 5f 29 d7 be
       0.007994704 -0.34549996 -0.38751045 -0.4202375
000110 46 a9 19 bf 05 47 6e 3d fe f2 9d be 23 d0 b3 3c
       -0.60023916 0.0581732 -0.3084945 0.021949833
000120 1f 1d 18 3e bf b4 a1 be 31 4f d3 bd 32 a6 7e be
       0.14854859 -0.3158321 -0.10317839 -0.24868086
000130 8e 23 09 bf 2a e7 da be 96 23 c3 3d fd 9d f3 be
       -0.5356988 -0.4275449 0.09528272 -0.47581473
000140 1b 6b 20 3d a7 fd 15 3e 2d 77 90 3e ca 8f d1 3d
       0.039164644 0.14647542 0.28215924 0.10232504
000150 32 c5 7e bd ad db bd 3e b8 66 10 3f a2 46 93 3e
       -0.06219978 0.37081662 0.56406736 0.28764826
000160 e1 8b fd 3e 87 bf ad 3e c6 fc d5 be ad e4 49 3d
       0.49520782 0.33935186 -0.41794413 0.049290348
000170 a2 38 fc bd 4b a5 07 bf 9b 47 d3 be be 03 27 3d
       -0.12315489 -0.5298659 -0.41265568 0.040775053
000180 6f 35 94 be b3 69 48 bc 5f 7c e6 be 5d 7a 62 bc
       -0.28947017 -0.012232232 -0.45016763 -0.013823119
000190 cd 07 11 bf 2a d4 cd be b8 d8 3c be e3 ab da be
       -0.5665253 -0.4020093 -0.18442047 -0.42709264
0001a0 7c f6 5b be 51 9c c6 be 77 94 12 be 13 60 0b 3e
       -0.21480745 -0.38791135 -0.14314447 0.13610868
0001b0 46 b8 a3 be 30 e3 92 3d 59 bd 16 3f 3f ba e7 3d
       -0.31976527 0.07172239 0.5888267 0.113148205
0001c0 fe a0 1d 3f b1 b5 1f 3f 08 6a 93 be 95 3d fc 3e
       0.6157378 0.62386614 -0.28791833 0.49265733
0001d0 db 06 99 bd f9 6f a3 3e 34 20 89 3e 69 66 66 3d
       -0.07472011 0.31921366 0.26782382 0.05625001
0001e0 af 2e 91 3c 8c 79 20 3f a9 20 47 be 0f cb 8f 3e
       0.017722456 0.62685466 -0.19446053 0.2808461
0001f0 1f 75 16 3f 7c 66 5a 3d 7c c8 99 3d fa 44 0b 3f
       0.5877246 0.053320393 0.075089425 0.54402125
000200 eb 8a 3f bd dd dc 7d 3e 3c 71 7f 3e 89 e5 8e 3e
       -0.046763342 0.24791284 0.24945539 0.27909496
000210 e5 33 0b 3f 46 22 a3 3e d7 8c e5 3d f5 6d c6 3e
       0.5437606 0.31862086 0.11208504 0.38755766
000220 be dc a7 3e 37 3b 6a 3d d5 ac db 3e 55 27 22 3f
       0.327856 0.057185378 0.42905298 0.63341266
000230 0f af ad 3e 49 17 6f 3e fb c1 22 be 4a 00 65 3e
       0.33922622 0.23348726 -0.1589431 0.22363392
000240 b5 f1 cb bd 4d 23 5a be 51 3c d3 be 7a 75 0c 3d
       -0.09958211 -0.21302529 -0.41256955 0.034291722
000250 9e 9f 31 bf d6 d1 26 bf 13 29 94 3e a6 45 52 3d
       -0.6938418 -0.65163934 0.28937587 0.051335953
000260 68 f5 0e be 82 93 51 be 48 a8 49 be 10 76 a7 be
       -0.13960803 -0.20466426 -0.196931 -0.32707262
000270 64 69 bf be 3a 52 da be 2a d0 b0 be e5 5d 52 be
       -0.37385094 -0.4264086 -0.34533817 -0.2054363
000280 00 47 c4 be ad 28 cd be 1c bd 02 3f 74 97 96 ba
       -0.3833542 -0.40070096 0.5106981 -0.0011489228
000290 c6 fc 72 bd 88 81 1d 3f 25 12 30 3f 6b 09 a6 3e
       -0.059323095 0.61525774 0.68777686 0.3242906
0002a0 3b 9d 77 3e e0 5f 81 3c 40 19 3c 3e 31 f1 bc be
       0.24181072 0.015792787 0.18369007 -0.36902764
0002b0 97 f0 13 bf 6c 64 7d be 14 ab 99 be 44 3c 51 be
       -0.57788986 -0.24745339 -0.30013335 -0.20433146
0002c0 15 61 5e be 2d 3c 31 be 0c 6c e8 be c3 0e 59 bd
       -0.21716721 -0.17308111 -0.45394933 -0.052992593
0002d0 b7 9e 78 be 97 34 08 be b0 46 3d be 56 85 f5 bd
       -0.24279295 -0.13301311 -0.18483996 -0.119883224
0002e0 f4 84 13 bf 8e f1 05 bf 62 66 f1 be 7e ae 2b 3d
       -0.57624745 -0.5232171 -0.47148424 0.041914456
0002f0 8b c2 03 bc ef f5 89 be c9 00 c4 be 2e f0 c2 be
       -0.008041988 -0.26945445 -0.3828185 -0.38073868
000300 e0 ec ac bd 02 df fc be 5a e3 eb be 74 4a 31 bd
       -0.08443618 -0.4938889 -0.46071893 -0.043283895
000310 98 76 14 bf dc 02 73 be de 92 99 bd 0f 13 ef be
       -0.5799346 -0.2373156 -0.07498716 -0.46694228
000320 c8 9c ed be ab e3 0f bf b1 8f ea be d7 a5 0a be
       -0.46408677 -0.5620677 -0.45812753 -0.13539825
000330 53 26 ff be 79 8d 89 be 93 d4 68 be 9d 44 cc be
       -0.49833927 -0.26865748 -0.2273734 -0.39896098
000340 35 de 70 be 6f 56 07 3e 49 5f fd be b5 e9 14 bf
       -0.23522265 0.13216566 -0.4948676 -0.5816911
000350 07 d5 89 be 02 d1 5a bd ca d9 d4 be aa 75 e6 be
       -0.2692034 -0.05342198 -0.4157241 -0.45011646
000360 55 18 06 be f9 1c 20 3e f9 fa 1a bc 46 47 b6 3e
       -0.1309522 0.15636052 -0.009459251 0.35601252
000370 bc bf 24 3f 65 26 cc 3e c7 03 7b 3e 29 e1 94 3e
       0.64355063 0.39873043 0.2451316 0.29078034
000380 6b f3 bb 3d 90 98 40 3e 11 be f4 bd 5b 4b 3b be
       0.09177288 0.18808198 -0.11950315 -0.18290465
000390 ea c4 1d 3e b8 58 41 bf 85 dd d4 be 63 d8 81 be
       0.15407148 -0.75526 -0.41575256 -0.25360402
0003a0 78 88 72 be 9a aa 85 be 5e 04 1c be 86 a9 90 3d
       -0.23684871 -0.2610672 -0.15236041 0.07063584
0003b0 64 ca 83 3e de 11 e3 be 18 d3 2c bd ab 96 b2 3e
       0.2574035 -0.4434957 -0.042193502 0.34880576
0003c0 81 18 c9 be a7 46 0f bf 92 7d b9 be 2c ea 5d 3c
       -0.39276507 -0.5596718 -0.36228615 0.0135446
0003d0 e4 6d f1 be 97 3d f6 bd 80 66 00 3e 32 5c 91 be
       -0.47154152 -0.12023466 0.125391 -0.28390652
0003e0 50 fb 03 bf fa a7 94 bc 75 4f 2c bf 80 93 91 be
       -0.5155535 -0.018146504 -0.6730874 -0.28432846
0003f0 9f b4 b4 be f7 0e 8a bc 7e 6b 48 be 1a 05 eb be
       -0.35294053 -0.016852839 -0.19572255 -0.4590233
